TradingAlgorithm/model_returns.pth (torch, 217003 bytes, 11 tensors)

lstm.weight_ih_l0 f4 [256, 3]
0	0x3e7c02fb	0.24610512
1	0x3dc60fd6	0.09670989
2	0x3c1d74b4	0.009610344
3	0xbc3cf01e	-0.011531858
4	0x3cc7f604	0.024409302
5	0x3d2bab51	0.041911427
6	0x3d07ff21	0.033202294
7	0xbe08f21e	-0.1337361
8	0x3cfb7200	0.030694008
9	0x3c9a7b1c	0.018857531
10	0xbda7ed36	-0.08199541
11	0x3e4da26a	0.20081487
12	0x3d233d19	0.03985319
13	0xbd8f1d70	-0.06988037
14	0xbdac6b26	-0.084188744
15	0x3d8ef766	0.06980781
16	0xbf0568f4	-0.5211327
17	0xbeafcf9c	-0.3433808
18	0x3eeb0c9b	0.45908055
19	0x3dc26dc2	0.09493591
20	0x3dd6e850	0.10493529
21	0xbdbe1869	-0.092819996
22	0x3c220d17	0.009890816
23	0xbe0ab8f5	-0.13547118
24	0xbd4213db	-0.047382217
25	0x3d9e2aa3	0.07722976
26	0x3e1f9cbe	0.15587136
27	0x3e0cefaa	0.137633
28	0xbe03f62a	-0.12886873
29	0xbde163d1	-0.110053666
30	0xbd9912c5	-0.07474283
31	0xbc48934a	-0.012242148
32	0xbcf182ce	-0.029481318
33	0x3e283d56	0.16429648
34	0xbe3a5837	-0.18197714
35	0xbdeeef47	-0.11666732
36	0x3e11662a	0.14199129
37	0xbeab3299	-0.3343704
38	0x3deef1bc	0.11667201
39	0x3e453481	0.1925831
40	0xbef041e6	-0.46925277
41	0x3dbc1406	0.09183507
42	0xbe011a72	-0.12607744
43	0x3ca8ac2c	0.02058991
44	0x3d331f30	0.043730915
45	0x3e00aa5e	0.1256499
46	0xbe14dde9	-0.14537777
47	0xbdd7954c	-0.10526523
48	0xba81b6b0	-0.0009896364
49	0xbd04f45d	-0.032459605
50	0xb896f503	-7.198194e-05
51	0xbdc739d2	-0.09727825
52	0xbd3e1fff	-0.046417233
53	0xbdd4ad5d	-0.10384629
54	0x3e099c0c	0.13438433
55	0x3c881cde	0.016615327
56	0x3e2a8b05	0.16654594
57	0xbd36c587	-0.04462197
58	0x3d6d5cc4	0.057949796
59	0xbc65557d	-0.013997433
60	0x3e5dd8b7	0.21664701
61	0xbe92482a	-0.28570682
62	0xbc62b339	-0.013836675
63	0xbac83487	-0.0015274443
64	0xbe8304ff	-0.2558975
65	0x3d2ee9ca	0.042703427
66	0x3ea13c84	0.31491482
67	0x3e2e9d7d	0.17052265
68	0xbee179b7	-0.44038174
69	0x3ef62e03	0.4808198
70	0xbdbe1d39	-0.092829175
71	0x3d3c2d66	0.045941733
72	0x3bc93d70	0.006141357
73	0x3b692f7e	0.0035581286
74	0x3d7fd16a	0.062455572
75	0x3de55c0a	0.11199196
76	0x3f0d481e	0.5518817
77	0xbee8ca66	-0.45466918
78	0x3e24de4a	0.16100422
79	0xbd770784	-0.0603099
80	0xbd2a089e	-0.041512124
81	0xbe604eed	-0.21905108
82	0x3eaca241	0.3371754
83	0x3e1dc6c8	0.1540786
84	0x3e06f8bb	0.1318082
85	0xbd5664f0	-0.052342355
86	0x3dcea15b	0.1008937
87	0x3e80f09a	0.25183564
88	0xbd03338f	-0.032031592
89	0x3d870a42	0.065937534
90	0x3d2aaff0	0.041671693
91	0x3cec957e	0.028879877
92	0x3de414d6	0.11136787
93	0x3e42e614	0.1903308
94	0xbd9c981c	-0.076462
95	0xbe285b21	-0.16441013
96	0x3d51ee72	0.05125279
97	0xbe3109a1	-0.1728883
98	0xbe9db23b	-0.30800042
99	0x3e46aa3e	0.1940088
100	0xbe4c969f	-0.19979332
101	0xbe68908f	-0.22711395
102	0xbd098dac	-0.033582374
103	0xbdc4121d	-0.09573767
104	0xbdcc344c	-0.09970912
105	0xbd106336	-0.035250865
106	0x3c212b3c	0.009836968
107	0xbbf84dda	-0.00757764
108	0xbde73e07	-0.11291128
109	0x3dd0b674	0.1019105
110	0xbdf0d5e4	-0.117595464
111	0xbdcaf346	-0.09909682
112	0xb9e9f931	-0.00044626885
113	0xbdc93c66	-0.09825973
114	0x3d18c1a8	0.03729406
115	0xbdfff08d	-0.12497053
116	0x3d0ea449	0.034824643
117	0x3dbabee5	0.091184415
118	0xbcf43bd2	-0.02981368
119	0xbd86c3e8	-0.06580335
120	0x3d2ce23b	0.042207938
121	0xbe20f62e	-0.1571891
122	0xbd036184	-0.03207542
123	0x3ea7601f	0.32690522
124	0x3f13714b	0.57594746
125	0x3d897946	0.06712584
126	0x3cea8539	0.028627979
127	0xbebfc34c	-0.37453687
128	0xbe62fd3e	-0.22166917
129	0x3e2e875a	0.1704382
130	0xbebfaed7	-0.3743808
131	0xbe282275	-0.16419394
132	0xbd6760b3	-0.056488704
133	0xbe52e4c1	-0.20595075
134	0xbd141be1	-0.0361594
135	0xbdc137fc	-0.09434506
136	0xbf0cd598	-0.5501342
137	0xbe265e7b	-0.16246979
138	0x3e162c06	0.14665231
139	0x3dc3ed6c	0.09566769
140	0xbe2c2358	-0.16810358
141	0x3d824558	0.063608825
142	0x3aea21e8	0.0017862888
143	0xbdd73cd6	-0.105096504
144	0x3db6ca76	0.08925335
145	0x3e22eb6f	0.15910123
146	0x3da7c074	0.081910044
147	0xbe077ad0	-0.13230443
148	0x3cd0b10b	0.025475046
149	0xbdaa7a2c	-0.08324084
150	0x3f180033	0.59375304
151	0xbee4e55c	-0.44706237
152	0x3d349d56	0.04409536
153	0x3e4b693e	0.19864365
154	0xbe2de8ca	-0.16983333
155	0x3d16c306	0.036807083
156	0x3d2fd178	0.042924374
157	0xbe5aba95	-0.21360238
158	0xbe0f2001	-0.13977052
159	0x3c1e3e1e	0.009658365
160	0xbdef9770	-0.11698806
161	0xbe150666	-0.14553222
162	0x3e095802	0.13412479
163	0xbd52ce95	-0.051466543
164	0x3df1f395	0.11814038
165	0x3ebb541f	0.36587617
166	0xbed042e8	-0.40676045
167	0xbe95d569	-0.29264382
168	0x3d33f570	0.04393524
169	0x3ecaa498	0.395787
170	0xbd9f79f4	-0.077869326
171	0xbd3fa267	-0.04678574
172	0xbe1c2b3c	-0.15250868
173	0xbd7f9ae1	-0.062403563
174	0xbd83ee8c	-0.064419836
175	0xbd486e03	-0.04893304
176	0x3c85a915	0.016315976
177	0x3d962ac7	0.07332378
178	0x3daba7a5	0.08381585
179	0xbe913b66	-0.2836563
180	0xbc9aec2b	-0.018911442
181	0xbdf700ec	-0.12060723
182	0xbe0e6948	-0.13907349
183	0x3e1f89d2	0.15579918
184	0xbf10a22f	-0.5649747
185	0xbe1772a0	-0.1478982
186	0xbca1558e	-0.019694116
187	0x3e3e8510	0.18605447
188	0x3d9aa921	0.0755179
189	0x3c0b8567	0.008515692
190	0xbd04277b	-0.032264214
191	0xbe4926f5	-0.19643767
192	0x3e95ad14	0.2923361
193	0x3e441e4f	0.19152187
194	0x3eb835bb	0.35978493
195	0x3dff382e	0.12461887
196	0xbb58b862	-0.0033068885
197	0xbd282259	-0.04104838
198	0x3e01e169	0.12683643
199	0xbe5804a2	-0.21095517
200	0xbdcf452a	-0.10120614
201	0xbe3d37fb	-0.18478386
202	0xbea3e79c	-0.3201264
203	0x3ea86d40	0.3289585
204	0xbd6410ef	-0.05568021
205	0x3d84ed57	0.064905815
206	0xbc35028c	-0.0110479705
207	0xbe0365a7	-0.12831746
208	0xbeb9ac75	-0.36264387
209	0x3e098fd7	0.13433777
210	0x3e936492	0.28787667
211	0xbda35de5	-0.07976893
212	0x3ca2b32a	0.019860823
213	0x3d8a7238	0.06760067
214	0xbda827d5	-0.08210722
215	0x3c472575	0.012154927
216	0xbe24b59d	-0.16084905
217	0xbe947074	-0.28992045
218	0x3e3c6c31	0.18400647
219	0x3dbeaa81	0.09309865
220	0xbe0eddde	-0.13951823
221	0x3ce8b5d1	0.02840701
222	0xbc5f972a	-0.01364688
223	0x3dabe10e	0.08392535
224	0x3d2c0564	0.04199733
225	0x3d5eccf3	0.054394674
226	0xbe3e9d5a	-0.18614712
227	0x3e9409fa	0.28913862
228	0x3db6e1d1	0.0892979
229	0x3db39eec	0.08770546
230	0x3e4dcafd	0.20096965
231	0x3e896024	0.26831162
232	0xbca459aa	-0.020062286
233	0x3d449901	0.04799748
234	0x3d877d9f	0.06615757
235	0xbd673b94	-0.056453303
236	0x3d672b92	0.056438036
237	0xbe10c393	-0.14137106
238	0x3e1f815b	0.15576689
239	0x3da05196	0.07828061
240	0xbd34d01c	-0.04414378
241	0xbcec3255	-0.028832594
242	0x3c5600a8	0.01306168
243	0x3cec6405	0.028856287
244	0x3dc96f42	0.09835674
245	0x3af355eb	0.0018565034
246	0xbe0f9f2e	-0.14025566
247	0xbd02b16e	-0.03190749
248	0x3d5c697d	0.05381154
249	0x3b1c3688	0.0023836214
250	0xbd1fb402	-0.03899003
251	0x3d8acbdf	0.067771666
252	0xbae219d4	-0.0017250129
253	0xbe7db9e1	-0.24777938
254	0x3e726901	0.23672868
255	0x3dd00a13	0.101581715

lstm.weight_hh_l0 f4 [256, 64]
0	0xbd215c20	-0.039394498
1	0x3e9994b9	0.2999628
2	0xbe1515fc	-0.14559168
3	0xbe71c1ce	-0.23609087
4	0xbe4eb749	-0.20187105
5	0xbdeb89c8	-0.11500889
6	0xbecf8453	-0.40530643
7	0xbeb45ad9	-0.3522556
8	0x3ed7a1ae	0.4211554
9	0xbee82500	-0.4534073
10	0xbeaff2e5	-0.34365
11	0x3de94044	0.11389211
12	0xbe65b2f5	-0.22431548
13	0xbef14e37	-0.47129986
14	0xbecaaed1	-0.395865
15	0xbd44f170	-0.048081815
16	0xbebcfbc6	-0.36910838
17	0x3ea075d7	0.31339905
18	0xbeca166a	-0.39470226
19	0x3e71eba6	0.23625049
20	0x3d64e361	0.055880908
21	0x3d9efb8c	0.077628225
22	0x3def6116	0.116884395
23	0xbe8466df	-0.25859734
24	0x3ec28214	0.37989867
25	0x3ecfdded	0.40599003
26	0x3e930637	0.2871568
27	0x3ba7589a	0.0051069977
28	0x3e769820	0.24081469
29	0xbe43cfcb	-0.19122235
30	0xbf014a47	-0.50503963
31	0xbf334c70	-0.7003851
32	0x3efe2de8	0.496444
33	0x3eba6d9f	0.3641176
34	0x3e10e445	0.14149578
35	0xbeb7915f	-0.35853097
36	0x3e5a0cee	0.21293995
37	0xbe6a1e66	-0.22863159
38	0xbeefce3e	-0.46837038
39	0x3efdc9eb	0.49568114
40	0x3e72355f	0.23653172
41	0xbc727102	-0.014797451
42	0xbe059485	-0.13044937
43	0xbe9158d1	-0.28388074
44	0xbe134de5	-0.14385183
45	0xbe3b6184	-0.18298918
46	0xbe0dabfd	-0.1383514
47	0xbee8e781	-0.45489123
48	0x3f070dde	0.52755535
49	0xbe91d145	-0.28479972
50	0xbf4a5254	-0.7903187
51	0xbdb84540	-0.089975834
52	0xbefcc08b	-0.4936565
53	0x3cce1ca7	0.025160147
54	0xbef19272	-0.4718204
55	0xbf00a6fc	-0.502548
56	0x3eba1d70	0.36350584
57	0x3ec965df	0.39335534
58	0xbe5f026f	-0.21778272
59	0x3dcdf9db	0.10057422
60	0xbdf1e885	-0.11811928
61	0x3da78dfc	0.08181378
62	0x3f0628d1	0.5240603
63	0x3e4edf8a	0.20202461
64	0x3d933257	0.07187336
65	0x3e16c2e0	0.14722776
66	0x3e01d062	0.12677148
67	0x3e01941f	0.1265416
68	0xbe121c16	-0.14268526
69	0x3cf92f64	0.030418105
70	0x3dedb82f	0.11607396
71	0x3dd4f02b	0.10397371
72	0xbbef6300	-0.007305503
73	0x3d89ec2b	0.067344986
74	0x3d8509e4	0.06496027
75	0x3d60204e	0.05471831
76	0xbd52d992	-0.051477022
77	0xbdc88e00	-0.09792709
78	0xbe161568	-0.14656603
79	0xbce0afda	-0.027427603
80	0xbd054687	-0.032537963
81	0xbd58aaf7	-0.05289742
82	0xbd024a83	-0.03180934
83	0x3de99d6d	0.1140698
84	0x3d9719a7	0.0737794
85	0xbdea8350	-0.11450827
86	0x3e9a17dc	0.30096328
87	0x3dbcf753	0.09226861
88	0x3d10d4af	0.03535908
89	0x3bb1b6ce	0.0054234033
90	0x3dec6b7e	0.1154394
91	0xbb076f21	-0.0020665603
92	0x3da720c5	0.08160547
93	0xbd0e2698	-0.034704775
94	0xbdfc1407	-0.123085074
95	0xbdfd2400	-0.12360382
96	0xbb848a55	-0.004044811
97	0x3e097338	0.13422859
98	0x3df24a43	0.118305705
99	0x3d544471	0.051823083
100	0xbc5bbf80	-0.013412356
101	0xbdfd8031	-0.12377966
102	0xbcb7d5a3	-0.022440737
103	0x3df1116a	0.117708996
104	0xbc3170c6	-0.01083011
105	0x3dac24e7	0.08405476
106	0x3d17db77	0.037074532
107	0xbd3f43f2	-0.046695657
108	0xbc803ecc	-0.015654944
109	0xbdb5b50b	-0.08872422
110	0xbe2e63a9	-0.17030205
111	0xbdf846ec	-0.12122902
112	0xbccc8ce8	-0.024969533
113	0x3d9ed037	0.077545576
114	0x3d3f6c23	0.046733987
115	0x3db634c6	0.088967845
116	0xbdf30941	-0.118669994
117	0xbdc6299f	-0.09675907
118	0x3d346baf	0.044048008
119	0xbddb13cb	-0.106971346
120	0x3d90307f	0.070405
121	0x3cfa9ea8	0.030593231
122	0xbda16ef8	-0.07882494
123	0xbd7a9c62	-0.061184295
124	0xbe179a74	-0.14805013
125	0x3c05cc87	0.008166439
126	0x3dffba64	0.12486723
127	0x3da7cd8d	0.081935026
128	0xbca79812	-0.020458255
129	0x3d20133a	0.039080836
130	0xbe50ad62	-0.2037864
131	0xbc1326ef	-0.00898145
132	0xbda252ad	-0.079259254
133	0x3e3dec53	0.18547182
134	0xbe93000c	-0.28710973
135	0xbe4308ed	-0.19046374
136	0xbe2621cf	-0.16223834
137	0xbe31c938	-0.17361915
138	0xbc8ab361	-0.016931238
139	0x3d921252	0.071324006
140	0x3d26247e	0.040562145
141	0xbce9c548	-0.028536454
142	0xbcf98199	-0.030457305
143	0xbddd3484	-0.10801032
144	0xbe19ff3a	-0.15038767
145	0x3c80ea8c	0.01573684
146	0xbdaedb2b	-0.08537897
147	0x3e47a937	0.19498144
148	0x3f142e17	0.5788283
149	0xbc75a818	-0.01499369
150	0x3d2eb810	0.042656004
151	0xbdb891df	-0.09012198
152	0x3e53a7ab	0.20669429
153	0x3e056a91	0.13028933
154	0x3ddd533e	0.10806893
155	0xbe8dfc43	-0.27731523
156	0xbd116eb2	-0.035505958
157	0xbeb770bd	-0.358282
158	0xbdc3e197	-0.09564512
159	0xbe2ab9c4	-0.16672426
160	0x3e2646f6	0.16238007
161	0x3e104653	0.14089327
162	0x3e111d15	0.1417125
163	0xbe3fc707	-0.18728267
164	0x3e466911	0.19376017
165	0xbddad4c7	-0.10685115
166	0xbe2ef535	-0.17085727
167	0x3dc5f8fe	0.09666632
168	0xbd233088	-0.039841205
169	0xbea921de	-0.3303365
170	0x3d612525	0.054967064
171	0xbe04558c	-0.12923259
172	0xbe243c79	-0.16038693
173	0x3e47b71c	0.19503444
174	0xbe37b5ce	-0.17940447
175	0xbce80b1f	-0.028325615
176	0x3d4f72ff	0.05064678
177	0xbe27a6f0	-0.16372275
178	0xbe6858f4	-0.22690183
179	0x3da259f6	0.07927315
180	0xbc5b87ae	-0.013399048
181	0x3e9f0bba	0.31063634
182	0xbdf6fa82	-0.12059499
183	0xbd77f9d3	-0.060540985
184	0x3dd1905d	0.10232613
185	0x3e0fd350	0.14045453
186	0xbe0569ca	-0.13028637
187	0xbcb50d23	-0.02210099
188	0xbcbdbaab	-0.0231603
189	0x3ddf7b05	0.10912136
190	0x3d838036	0.06420939
191	0x3e76cd62	0.24101785
192	0xbed15d6d	-0.4089159
193	0x3e11c35e	0.14234683
194	0xbdcc3d85	-0.099726714
195	0xbe0070da	-0.1254305
196	0xbe41658c	-0.18886393
197	0xbc77fa30	-0.015135333
198	0xbee52093	-0.44751415
199	0xbe885f7a	-0.26635343
200	0x3e02322e	0.12714455
201	0xbe9581bf	-0.2920055
202	0xbd851038	-0.06497234
203	0x3dddc6a5	0.10828904
204	0xbd3c3583	-0.04594947
205	0x3d859f1c	0.06524488
206	0xbe4c5f86	-0.19958314
207	0x3d7763f5	0.06039806
208	0xbe3ac621	-0.18239643
209	0x3e1e732c	0.15473622
210	0xbdee16b2	-0.116254225
211	0x3e752347	0.23939238
212	0x3dcfa6c4	0.1013923
213	0x3e6dff59	0.23241939
214	0xbdcdd59a	-0.10050507
215	0x3d36974a	0.044577874
216	0x3e1172e0	0.14203978
217	0x3e94ab9a	0.29037172
218	0x3d3134f7	0.0432634
219	0xbce9f70f	-0.02856019
220	0x3e086d94	0.1332305
221	0xbe4de4d2	-0.2010682
222	0xbbb3bc61	-0.005485103
223	0xbe724214	-0.2365802
224	0x3e3fc659	0.18728007
225	0x3e41ff8a	0.18945137
226	0x3cfaba50	0.030606419
227	0xbdb4c2f1	-0.088262446
228	0xbbb3d202	-0.0054876814
229	0xbe73667f	-0.23769568
230	0xbc4e13b0	-0.012577936
231	0x3db11a7f	0.08647632
232	0x3dd82a99	0.10555
233	0x3cc70f8f	0.024299411
234	0x3e50721e	0.20356032
235	0x3e0066e7	0.12539254
236	0xbe9a1c12	-0.3009954
237	0x3e7d4c3d	0.24736114
238	0xbea17b5a	-0.31539422
239	0xbdf02275	-0.11725322
240	0x3ea0443f	0.31302068
241	0x3c63c007	0.013900763
242	0xbe0d841d	-0.13819928
243	0xbe2b1bcc	-0.16709822
244	0x3e3abca7	0.18236028
245	0x3e9b4651	0.30327085
246	0xbdfe35b5	-0.124125876
247	0xbe918d2a	-0.28428012
248	0x3e718176	0.23584542
249	0x3e96270e	0.2932667
250	0xbe323bad	-0.17405577
251	0xbdcfb9d8	-0.10142869
252	0xbe5dd55a	-0.21663418
253	0x3d3a003a	0.045410372
254	0x3d3a1174	0.0454268
255	0x3e7d8f79	0.24761762

lstm.bias_ih_l0 f4 [256]
0	0x3e40de43	0.18834786
1	0xbd557e30	-0.052122295
2	0x3d0356d9	0.032065246
3	0x3e17459d	0.14772649
4	0x3dfe2b4e	0.124106035
5	0x3e1523f4	0.14564496
6	0x3df34af3	0.1187953
7	0x3ddba5cf	0.10724985
8	0x3e32df97	0.17468105
9	0x3e021b30	0.12705684
10	0x3d86b125	0.065767564
11	0x3e082ca3	0.13298278
12	0x3df0b9b1	0.11754168
13	0x3d8d8106	0.06909375
14	0x3e07234a	0.13197055
15	0x3dfe61bf	0.12420987
16	0xbc0e68c0	-0.0086919665
17	0x3dae47a3	0.08509757
18	0x3e86a226	0.26295584
19	0x3da530cc	0.08065948
20	0xbd2d5c75	-0.042324502
21	0x3dc1ce05	0.09463123
22	0x3e9a3f29	0.30126312
23	0x3da47932	0.08030929
24	0x3c3fa828	0.011697806
25	0x3e83c7ba	0.25738317
26	0x3d63be5c	0.055601463
27	0x3cbec552	0.023287449
28	0x3c69671a	0.014245773
29	0x3d81d4a6	0.063393876
30	0x3d6a0b5d	0.057139743
31	0x3c2d21b2	0.010567116
32	0x3ed1352c	0.4086088
33	0xbd38aed7	-0.045088615
34	0xbd017c77	-0.03161284
35	0x3c95137c	0.018197767
36	0xbd2f7e92	-0.042845316
37	0x3e00b353	0.12568407
38	0x3dd1f031	0.10250891
39	0xbd99ccef	-0.07509791
40	0x3cf7a8cd	0.030231858
41	0x3d78db65	0.060756106
42	0x3e93a992	0.2884031
43	0x3e6e6084	0.23279005
44	0xbd61734a	-0.05504159
45	0x3e93ace5	0.28842846
46	0x3e02fb66	0.12791213
47	0x3e14113c	0.144597
48	0x3dcfb556	0.10142009
49	0x3d3fbff1	0.04681391
50	0x3e93ef97	0.2889373
51	0x3df3a6f2	0.11897077
52	0x3d82efce	0.06393395
53	0x3dc6cab7	0.097066335
54	0x3b08188e	0.002076659
55	0x3e825619	0.25456312
56	0x3d38bf55	0.045104343
57	0x3e19b7f5	0.1501158
58	0x3df94960	0.12172198
59	0x3e2e5fb1	0.17028691
60	0x3dcf8e6f	0.10134589
61	0x3e96a4bd	0.2942256
62	0x3e0a8fb6	0.13531384
63	0x3e189991	0.14902331
64	0x3dff09e0	0.124530554
65	0xbca9d8b0	-0.020733207
66	0xbb628a36	-0.0034567243
67	0xbd7b914e	-0.06141787
68	0xbc8b2726	-0.01698644
69	0x3c85fe04	0.016356476
70	0x3d7eec0e	0.062236838
71	0x3dcb72d0	0.09934008
72	0x3e1057d2	0.14096001
73	0x3dfceb80	0.123496056
74	0x3b5934e2	0.0033143093
75	0x3dc51966	0.09623985
76	0x3de9ac2c	0.11409792
77	0x3e36669b	0.17812578
78	0xbd91e848	-0.07124382
79	0xbd09a53a	-0.033604838
80	0x3def08eb	0.11671623
81	0xbd74cb25	-0.059764046
82	0xbd929209	-0.0715676
83	0xbd8c32fa	-0.068456605
84	0x3dda451a	0.10657711
85	0xbb68ecfb	-0.0035541642
86	0x3e18154c	0.14851874
87	0x3e94978b	0.29021868
88	0x3d1462e3	0.03622712
89	0x3d818c6d	0.06325612
90	0x3def02bb	0.11670443
91	0x3dafaf55	0.08578364
92	0xbc905250	-0.017617375
93	0x3e07d955	0.132665
94	0xbc6a1df1	-0.014289365
95	0xbcbdb48b	-0.023157379
96	0xbd11a470	-0.03555721
97	0x3dcd178b	0.10014256
98	0x3db9774c	0.09055957
99	0xbdb90dcc	-0.09035835
100	0xbd82a618	-0.06379336
101	0x3df415b0	0.11918199
102	0x3e05f6c9	0.13082422
103	0xbd83136b	-0.06400188
104	0xbbb7786a	-0.0055990713
105	0xbcd401f2	-0.025879834
106	0x3dafa431	0.08576239
107	0x3dd62869	0.104569264
108	0x3d216884	0.039406314
109	0xbdbcf81f	-0.09227013
110	0x3e08c394	0.13355857
111	0xbbf2851b	-0.0074011213
112	0x3d9d1920	0.07670808
113	0xbd0b8f1c	-0.034072027
114	0x3db65a09	0.089038916
115	0xbc8def79	-0.017326104
116	0x3daeed87	0.085413985
117	0xbc67ed35	-0.014155676
118	0xbbee4ca2	-0.007272319
119	0x3e7c48c1	0.24637128
120	0xbd318ea9	-0.043348942
121	0xbd754f85	-0.05989029
122	0xbdb491fd	-0.088169076
123	0xbde50214	-0.11182037
124	0xbdcb2ec6	-0.09921031
125	0x3cb70394	0.022340573
126	0x3d246aba	0.040140845
127	0xbd878013	-0.06616225
128	0xbddb6610	-0.10712826
129	0x3da8942c	0.082313865
130	0x3d98d4e3	0.0746248
131	0x3cd77d88	0.026304975
132	0x3d8dc1ca	0.06921728
133	0x3e01e2a9	0.1268412
134	0x3d7b20a1	0.061310414
135	0xbd0633e5	-0.032764334
136	0xbc230133	-0.009949016
137	0xbdda2b2c	-0.10652766
138	0xbdf7e473	-0.1210412
139	0x3db23252	0.08701004
140	0x3dc56394	0.09638134
141	0x3d55697f	0.052102562
142	0xbd8e5c44	-0.06951192
143	0xbd617255	-0.055040676
144	0x3bd7dbab	0.0065874658
145	0x3dcd76e0	0.10032439
146	0xbd88c5ba	-0.06678338
147	0x3df067d8	0.117385566
148	0x3e096846	0.13418683
149	0xbd94425f	-0.07239222
150	0xbc508b38	-0.012728505
151	0x3c078db4	0.008273531
152	0x3de493a3	0.11160972
153	0x3d509777	0.050925698
154	0x3d8e4f0a	0.06948669
155	0xbc42a7cc	-0.011880826
156	0x3dc6d572	0.0970868
157	0x3d88da0b	0.066822134
158	0xbdfbe836	-0.1230015
159	0xbd83381d	-0.06407187
160	0xbc50af59	-0.012737119
161	0x3dc1898b	0.09450062
162	0x3da87100	0.08224678
163	0x3d36e04c	0.0446475
164	0x3db952f7	0.090490274
165	0xbdb247ae	-0.08705078
166	0x3ce6d947	0.028179778
167	0x3dfd97f1	0.12382496
168	0x3b24c0e1	0.002513938
169	0xbdd1cbdf	-0.102439635
170	0x3df82ad1	0.121175416
171	0x3c8a8257	0.016907854
172	0xbe0e7019	-0.1390995
173	0x3be8d052	0.007104912
174	0xbdf5334f	-0.11972677
175	0xbd21c2c2	-0.039492376
176	0xbc845cb2	-0.016157482
177	0xbdd0c77e	-0.101943
178	0xbc679a23	-0.01413587
179	0x3de74a47	0.11293464
180	0xbdb12747	-0.0865007
181	0xbd7eb803	-0.062187206
182	0x3d486c59	0.048931453
183	0xbca17812	-0.019710574
184	0xba3d14c2	-0.0007212871
185	0x3cf1f21b	0.02953439
186	0xbdbc724a	-0.092014864
187	0xbd095d36	-0.03353616
188	0xbcbd7b03	-0.023129946
189	0x3d675ecc	0.05648689
190	0x3dafcdda	0.08584185
191	0x3dc3ae7a	0.09554763
192	0x3e19e514	0.15028793
193	0xbd5dddca	-0.054166593
194	0x3e3f9e74	0.18712789
195	0x3e5cfd73	0.21581058
196	0xbdca2ac8	-0.09871441
197	0x3e4c6087	0.19958697
198	0x3e3698d2	0.17831734
199	0x3dc94c05	0.09828953
200	0x3e727583	0.2367764
201	0xbd7f4099	-0.062317465
202	0x3d87b6a4	0.06626633
203	0x3e03845e	0.12843463
204	0x3d0bd09e	0.0341345
205	0x3e87e06e	0.26538414
206	0x3e03c8f8	0.12869632
207	0x3c6b892a	0.014375964
208	0xbd86312b	-0.06552347
209	0x3c601d7f	0.013678907
210	0x3e478c42	0.19487098
211	0x3c70e4b3	0.014702964
212	0x3d8b3974	0.06798068
213	0x3d0ffa80	0.035151005
214	0x3e40c3c3	0.18824677
215	0x3dc090c6	0.09402613
216	0xbda22231	-0.07916678
217	0x3e9ca9a9	0.3059819
218	0x3e16cb2c	0.14725941
219	0x3deac5be	0.114634976
220	0xbdc12905	-0.09431652
221	0x3d7742d3	0.060366463
222	0x3ddeee59	0.10885305
223	0x3e71eac2	0.23624709
224	0x3ea609db	0.32429394
225	0x3d934e6c	0.07192692
226	0x3d7b9e1a	0.061430074
227	0xbb9efcd2	-0.004851916
228	0xbd102692	-0.035193034
229	0xbdad5c02	-0.08464815
230	0xbd8ec62f	-0.06971394
231	0x3e08ad0b	0.1334726
232	0xbcbaeea5	-0.022818873
233	0x3e1036da	0.14083424
234	0x3e2f2cf5	0.17106993
235	0x3e9ac531	0.3022857
236	0x3e31fe30	0.17382121
237	0x3e725eac	0.23668927
238	0xbb8ca917	-0.004292618
239	0x3dc81afd	0.097707726
240	0xbc6f1e87	-0.014594681
241	0xbd65286e	-0.05594676
242	0x3ebebb2b	0.37252173
243	0x3e5f340a	0.21797195
244	0xbdb5023c	-0.08838317
245	0xbc84e042	-0.016220216
246	0x3d3b36b5	0.04570647
247	0x3dfbe67d	0.122998215
248	0x3e152aef	0.14567159
249	0x3c09b8fc	0.00840592
250	0x3de805c9	0.113292284
251	0xbd19f5f3	-0.03758807
252	0x3db2759b	0.08713838
253	0x3e3eebe8	0.18644679
254	0x3d96d7d4	0.07365385
255	0x3d0913a8	0.03346601

lstm.bias_hh_l0 f4 [256]
0	0x3e2fc34d	0.17164345
1	0xbd7ab9d1	-0.061212365
2	0x3dae168c	0.08500394
3	0x3ea3ea77	0.3201482
4	0xbc904873	-0.017612671
5	0x3e295017	0.16534458
6	0x3daec163	0.08532979
7	0x3de2e015	0.110778965
8	0x3eb80065	0.359378
9	0x3df2ab30	0.11849058
10	0xbda355f8	-0.079753816
11	0xbbdf285e	-0.006810232
12	0x3e690a9a	0.2275795
13	0x3e365b5c	0.17808288
14	0x3dcaf27f	0.09909534
15	0x3e60aa3f	0.21939944
16	0x3d190855	0.03736146
17	0x3e1b51b5	0.15167888
18	0x3e31386b	0.17306678
19	0x3d0be752	0.03415615
20	0xbcd273a8	-0.025689915
21	0x3e08a20d	0.13343067
22	0x3e9e5a5c	0.30928314
23	0x3de2c66e	0.11073004
24	0xbd632faf	-0.055465396
25	0x3e4e599a	0.20151368
26	0xbbb6cf60	-0.0055789202
27	0x3ca165e2	0.019701902
28	0xbd868938	-0.06569141
29	0x3d3e9235	0.046526153
30	0xbd0fe2f3	-0.035128545
31	0x3cb98b31	0.02264938
32	0x3e91c997	0.28474113
33	0x3e027266	0.12738952
34	0xbc863d23	-0.016386574
35	0x3dd5400a	0.10412605
36	0xbcddc93c	-0.027073495
37	0xbd5ac7d2	-0.05341322
38	0x3ccb90d2	0.02484933
39	0xbccc5581	-0.024943115
40	0x3dfd0b2a	0.12355645
41	0x3d1ffad3	0.039057564
42	0x3e9b0c3b	0.3028277
43	0x3e43e086	0.19128618
44	0x3e035200	0.1282425
45	0x3e794e86	0.2434636
46	0xbc186c15	-0.0093031125
47	0xbd061d1f	-0.032742616
48	0xbda58430	-0.080818534
49	0xbd4e2a43	-0.050333273
50	0x3de47b58	0.111563385
51	0x3dcfcad8	0.10146111
52	0xbd945e3e	-0.07244538
53	0x3e1fc995	0.15604241
54	0xbd1df5f8	-0.038564652
55	0x3da262b3	0.07928982
56	0x3e83c352	0.25734955
57	0x3d2529cf	0.040323075
58	0x3e035b60	0.12827826
59	0xbd8ae5c8	-0.067821085
60	0x3c5a3690	0.013318673
61	0x3e1476f3	0.144985
62	0x3d0b1fa6	0.03396573
63	0x3db34c28	0.0875476
64	0x3dbd1f96	0.0923454
65	0x3d55961e	0.052145116
66	0x3d58b494	0.052906588
67	0xbc693f4c	-0.014236283
68	0xbd5f5bb0	-0.0545308
69	0xbc538a75	-0.012911429
70	0xbd883c55	-0.066521324
71	0x3aa2f03c	0.0012431215
72	0x3e461270	0.19342971
73	0xb8843938	-6.304908e-05
74	0x3bc10b35	0.0058912286
75	0x3ce0298e	0.027363565
76	0xbcf2b9d5	-0.029629627
77	0x3d48d6c6	0.04903295
78	0x3e01d399	0.12678374
79	0xbdfe368c	-0.12412748
80	0xbd8dd9db	-0.06926318
81	0xbdbf003c	-0.093262166
82	0xbd0d61ab	-0.03451697
83	0xbd8c4ea3	-0.06850936
84	0x3dcbb26a	0.09946139
85	0x3dd05383	0.101721786
86	0x3d8e1169	0.069369145
87	0x3e2c82de	0.16846797
88	0x3d181b53	0.037135433
89	0x3e84f5ad	0.25968686
90	0x3d3985da	0.045293666
91	0xbc2c715c	-0.010525074
92	0x3ca58af4	0.02020786
93	0xbd1e671d	-0.038672555
94	0x3dec10a0	0.115266085
95	0xbbd3f2b1	-0.00646814
96	0xbd5cc95f	-0.05390298
97	0x3d6ba5f8	0.057531327
98	0x3dd60324	0.10449818
99	0xbd2c2541	-0.042027716
100	0x3d2380e8	0.039917856
101	0x3db46206	0.08807759
102	0x3d553ae3	0.052058112
103	0xbd0572d8	-0.032580227
104	0xbdb132c7	-0.08652263
105	0x3c902606	0.017596256
106	0x3d82d1fd	0.06387708
107	0xbcbc45dc	-0.02298253
108	0x3d7cdd7a	0.061734654
109	0xbce61879	-0.028087841
110	0x3dd03cf0	0.10167873
111	0x3c059364	0.008152816
112	0x3dacf28c	0.084447
113	0x3dd207fc	0.10255429
114	0x3d2b566d	0.04183047
115	0x3e15d8ea	0.14633527
116	0x3d5a8342	0.053347833
117	0x3d8f865e	0.070080504
118	0xbd705018	-0.058670133
119	0x3d7dae2b	0.061933678
120	0x3c5975d8	0.013272725
121	0xbba393f4	-0.0049920026
122	0x3ddeeb93	0.10884776
123	0x3d92a7b0	0.0716089
124	0xbd6083e0	-0.054813266
125	0xbdafbce5	-0.08580951
126	0x3e860838	0.26178145
127	0xbd58b3f7	-0.052906003
128	0x3d484464	0.048893347
129	0x3e061411	0.13093592
130	0xbb8d7cfd	-0.0043178783
131	0x3e00b1bf	0.12567805
132	0xbdcc8608	-0.09986502
133	0x3c8dce7e	0.017310377
134	0xbbd7aa74	-0.006581599
135	0x3caea0ea	0.021316964
136	0xbd0b2e12	-0.033979483
137	0x3d821398	0.063513935
138	0xbd8bef3b	-0.06832739
139	0x3daac7e6	0.08338909
140	0xbd51e25b	-0.05124126
141	0xbd2025cd	-0.03909855
142	0xbe06e037	-0.13171469
143	0xbd9f3363	-0.07773473
144	0xbe018220	-0.12647295
145	0x3c784c78	0.01515495
146	0x3c9670fa	0.018364418
147	0x3dae520c	0.08511743
148	0xbdb1a873	-0.08674707
149	0xbdbb6aa1	-0.09151197
150	0x3e0a403a	0.13501063
151	0x3d53a41f	0.05167019
152	0xbc2c207e	-0.010505794
153	0x3df68e94	0.12038913
154	0x3da75588	0.08170611
155	0xbd982ae0	-0.07430053
156	0x3dfb9f22	0.122862116
157	0x3d2db2cb	0.04240684
158	0x3de3513c	0.110994786
159	0xbd252ab0	-0.040323913
160	0xbe010cc8	-0.12602532
161	0xbbfda1b4	-0.007740224
162	0x3d0ce29b	0.034395795
163	0xbde6d207	-0.11270528
164	0xbd52c963	-0.05146159
165	0xbd8d15f0	-0.0688895
166	0xbdde4d9d	-0.10854647
167	0x3d3a9fb9	0.04556248
168	0x3da9a718	0.08283824
169	0x3dec977b	0.1155233
170	0xbd72b34d	-0.059253026
171	0x3ce9f2c1	0.028558137
172	0xbd016e64	-0.031599417
173	0x3cc7b76f	0.02437946
174	0xbd9a8089	-0.075440474
175	0xbd9a55ee	-0.07535921
176	0x3e015a40	0.12632084
177	0xbde26d88	-0.11056048
178	0x3d5193d5	0.051166374
179	0xbccd2cc4	-0.02504576
180	0x3d7275b0	0.059194267
181	0x3d0ff1d1	0.035142723
182	0xbc6badda	-0.014384711
183	0xbd262d99	-0.04057083
184	0xbdc50feb	-0.09622177
185	0x3d1f3556	0.038869224
186	0xbd243abe	-0.040095083
187	0x3d1287a4	0.03577389
188	0xbddfd462	-0.10929181
189	0x3dcf2925	0.101152696
190	0xbc5347ec	-0.0128955655
191	0x3db56cca	0.088586405
192	0x3dc8e230	0.09808767
193	0x3dab8323	0.08374622
194	0x3e1abca8	0.15111029
195	0x3d99beb9	0.075070806
196	0x3ca17bf0	0.019712418
197	0x3eb90215	0.361344
198	0x3e4fdb59	0.20298518
199	0xbc204302	-0.009781601
200	0x3e56995c	0.2095694
201	0x3dcc12e2	0.09964539
202	0xbd9c36ca	-0.07627638
203	0x3bb33784	0.0054692645
204	0x3dc80c3c	0.097679585
205	0x3e3e5a9b	0.1858925
206	0xbc95ee82	-0.018302206
207	0x3da53a93	0.08067813
208	0x3df6e5b7	0.120555334
209	0xbc765662	-0.015035244
210	0x3e8f85b0	0.28031683
211	0xbdd860c4	-0.105653316
212	0xbcc17386	-0.023614656
213	0x3e303d0e	0.1721079
214	0x3e02973d	0.12753005
215	0x3ea13709	0.314873
216	0x3d01a862	0.031654723
217	0x3e9ad683	0.30241784
218	0x3d99e995	0.07515255
219	0x3e38de59	0.18053569
220	0xbd9e349b	-0.077248774
221	0x3dd8ec34	0.10591927
222	0x3da687ff	0.08131408
223	0x3e2130b1	0.1574123
224	0x3ea83c53	0.32858524
225	0x3d739493	0.059467863
226	0x3e1083dd	0.14112802
227	0x3d4788ae	0.048714332
228	0xbc5d4ca0	-0.013507038
229	0xbd5819eb	-0.052759092
230	0x3ccfcbcb	0.02536573
231	0x3dc1e338	0.09467167
232	0xbdb6311c	-0.088960856
233	0x3e27054b	0.16310613
234	0x3dec598c	0.11540517
235	0x3e19151c	0.14949459
236	0xbd374a40	-0.044748545
237	0x3eb0b4b3	0.34512863
238	0x3e08f6e0	0.13375425
239	0xbda59537	-0.08085101
240	0x3cf7e97c	0.030262701
241	0xbd00d72a	-0.031455196
242	0x3e2a20e0	0.16614103
243	0x3e648c8c	0.2231924
244	0xbd0687a5	-0.032844204
245	0xbc0c33cd	-0.008557272
246	0x3dab80c1	0.08374167
247	0x3e37952b	0.17927997
248	0x3dd11b70	0.102103114
249	0xbd160c05	-0.036632556
250	0xbd551947	-0.05202606
251	0xbc47208a	-0.012153754
252	0x3d450a61	0.0481056
253	0x3e83048f	0.25589415
254	0x3e20465e	0.15651843
255	0x3dd7fce8	0.10546285

lstm.weight_ih_l1 f4 [256, 64]
0	0xbe878ec1	-0.264761
1	0x3e005a27	0.1253439
2	0xbda11ef9	-0.07867236
3	0x3e589fbb	0.21154682
4	0xbe62fd41	-0.22166921
5	0x3eccdbae	0.40011352
6	0xbd6af361	-0.05736101
7	0xbe312a14	-0.17301208
8	0xbddbcc62	-0.10732342
9	0xbe84453e	-0.25834078
10	0xbea72507	-0.32645437
11	0x3dbe98dc	0.09306499
12	0xbae832f0	-0.0017715376
13	0xbdc3e428	-0.09565002
14	0xbe362ec4	-0.17791277
15	0xbef3cf4f	-0.476191
16	0xbdc779b0	-0.09740007
17	0x3db63c2d	0.08898196
18	0xbe0ae51e	-0.13563964
19	0x3ea8a512	0.3293844
20	0xbcf41013	-0.029792821
21	0xbeff742f	-0.4989333
22	0xbdd1509a	-0.10220452
23	0xbe4a053f	-0.19728564
24	0x3e4a85de	0.19777629
25	0x3e909b37	0.2824342
26	0x3e2e55d0	0.17024922
27	0xbe66df7c	-0.2254619
28	0x3ea8bdd0	0.32957315
29	0x3eaed622	0.34147745
30	0xbd64062f	-0.05566996
31	0xbe64fa6f	-0.22361158
32	0xbd73f229	-0.059557114
33	0x3d4bb447	0.049732473
34	0x3dae5aae	0.085133895
35	0xbe625b9c	-0.22105259
36	0x3e866a4b	0.2625297
37	0xbd8acf78	-0.06777853
38	0xbdbc0138	-0.0917992
39	0x3e4cd27e	0.20002171
40	0x3e880100	0.26563263
41	0xbe86dd99	-0.2634094
42	0x3e3dd3c5	0.18537815
43	0xbeac5a73	-0.33662757
44	0xbeb94abf	-0.3618984
45	0x3eae7136	0.34070748
46	0xbe1030d8	-0.14081132
47	0xbd898dcf	-0.06716501
48	0x3e0869b0	0.13321567
49	0xbe84f39b	-0.25967106
50	0xbd1bd7b9	-0.038047526
51	0x3dbd57b8	0.09245247
52	0xbe4af6a3	-0.19820647
53	0x3df0b3df	0.11753058
54	0xbe877b17	-0.26461098
55	0xbdc71acc	-0.09721908
56	0xbdfcbace	-0.12340318
57	0x3de96f75	0.11398212
58	0xbe41c3d7	-0.18922363
59	0x3e27a363	0.16370921
60	0xbe537070	-0.2064836
61	0x3eb1354a	0.3461097
62	0x3e368028	0.17822325
63	0x3e49523e	0.19660279
64	0xbd5283fc	-0.0513954
65	0xbd971d39	-0.07378621
66	0x3dba13cb	0.090858065
67	0x3d06128e	0.03273254
68	0xbdadcfa6	-0.084868714
69	0x3e5640a8	0.20923102
70	0x3e0a9493	0.13533239
71	0xbc64a60f	-0.013955607
72	0x3e10e65e	0.14150378
73	0xbd029089	-0.03187612
74	0xbd8a3e67	-0.067501836
75	0x3dfb7704	0.1227856
76	0xbe2d7f35	-0.16943057
77	0x3df8249a	0.12116356
78	0x3de42c92	0.111413136
79	0x3d9683a7	0.073493294
80	0x3d6c76fe	0.057730667
81	0xbd807ab5	-0.062734045
82	0xbd93bfac	-0.07214293
83	0x3dd9a987	0.10628038
84	0xbd7b6faa	-0.061385788
85	0x3d858420	0.065193415
86	0xbcd95856	-0.02653138
87	0xbd69680f	-0.056984004
88	0x3d872db2	0.066005126
89	0x3d09e095	0.033661444
90	0x3cdea5a4	0.027178593
91	0xbca40646	-0.020022523
92	0xbd5e0355	-0.054202396
93	0xbe1bba93	-0.15207891
94	0xbe1025d4	-0.1407693
95	0x3b0beeeb	0.0021352123
96	0x3bdd277c	0.0067490917
97	0x3cd1d932	0.025616262
98	0xbc5b13c5	-0.013371413
99	0xbd79ccc7	-0.060986307
100	0x3d8f11b0	0.069857955
101	0x3d1d28fe	0.03836917
102	0xbd49a5af	-0.049230274
103	0xbde0c453	-0.10974946
104	0x3d030c81	0.031994347
105	0xbbfff935	-0.00781169
106	0xbdb84f7b	-0.08999535
107	0x3b17198c	0.0023055999
108	0x3d4dcad3	0.050242256
109	0x3d16a450	0.036777794
110	0x3dd2695c	0.10274002
111	0x3db8627b	0.09003159
112	0xbd077428	-0.03306976
113	0x3b45d563	0.0030187003
114	0x3e1c4c48	0.15263474
115	0xbcfb186f	-0.0306513
116	0xbd4c05cd	-0.04981022
117	0x3db156f9	0.08659167
118	0x3bd91422	0.0066247145
119	0xbd1579a3	-0.036492955
120	0x3dc03913	0.09385886
121	0xbd862db2	-0.065516844
122	0xbdb6950f	-0.089151494
123	0xbe044639	-0.12917413
124	0xbd57173b	-0.05251239
125	0xbd8c3cfa	-0.06847568
126	0xbdbfa444	-0.09357503
127	0xbd3a40cb	-0.045471948
128	0xbe52cdec	-0.20586365
129	0x3dad45a6	0.0846055
130	0x3dd57bb3	0.104239844
131	0x3d84792f	0.064684264
132	0xbc2dfd60	-0.010619491
133	0xbd008113	-0.031373095
134	0x3cfd2670	0.030902117
135	0x3b003d31	0.0019567723
136	0xbe1402e1	-0.14454223
137	0xbd8481c5	-0.06470064
138	0xbe080d2b	-0.13286273
139	0xbcefbfa8	-0.029266194
140	0xbc3f3229	-0.011669674
141	0x3e25057c	0.16115373
142	0xbdfc5e35	-0.12322656
143	0x3e564b60	0.20927191
144	0x3bbe1788	0.005801145
145	0x3d5dad45	0.05412032
146	0xbd0ee50b	-0.0348864
147	0x3d0b42f1	0.033999387
148	0xbde4d012	-0.11172499
149	0x3dbf3712	0.09336676
150	0x3cec49d3	0.028843796
151	0x3df0052d	0.11719737
152	0xbd84a531	-0.0647682
153	0x3d182086	0.03714039
154	0x3d7b03c7	0.0612829
155	0xbe7c61bd	-0.24646659
156	0x3e2fca2d	0.17166968
157	0x3cf2ce81	0.029639484
158	0x3df74c5e	0.12075113
159	0x3ca28b93	0.019841945
160	0xbe4d0717	-0.20022236
161	0x3de71726	0.11283712
162	0x3d6b940b	0.05751423
163	0xbd4c9802	-0.049949653
164	0x3cfc52cd	0.030801201
165	0x3caf1356	0.021371525
166	0xbdce2d6d	-0.10067258
167	0x3d4c0d42	0.04981733
168	0x3b90cd88	0.0044190325
169	0xbd5d8e00	-0.0540905
170	0x3dc2d9c2	0.0951419
171	0x3e3a90f2	0.18219355
172	0xbc16bf53	-0.009200889
173	0xbe0f1841	-0.13974096
174	0xbe763762	-0.24044564
175	0xbd117dce	-0.035520367
176	0xbc858c1e	-0.016302165
177	0x3ce0a86b	0.027424058
178	0x3da84733	0.08216705
179	0xbd81c86e	-0.06337057
180	0xbd4cf71a	-0.050040342
181	0x3e4b27ae	0.19839355
182	0xbdb4353e	-0.08799218
183	0xbdae2738	-0.08503574
184	0xbe8aa7ad	-0.2708105
185	0x3c3e96ef	0.011632665
186	0x3dfbd525	0.122965135
187	0xbe038558	-0.12843835
188	0xbd9e4d0f	-0.077295415
189	0xbe148665	-0.14504392
190	0x3dee9793	0.11650004
191	0xbd66b463	-0.056324374
192	0xbdda413a	-0.10656972
193	0x3d99947e	0.07499026
194	0x3d5985ea	0.053106226
195	0xbda37a3b	-0.07982298
196	0xbcf65271	-0.030068608
197	0x3d05e5e2	0.032689936
198	0xbd149855	-0.036278088
199	0xbe1ff29b	-0.1561989
200	0xbe4fe403	-0.20301823
201	0xbd742cbb	-0.05961297
202	0xbe176ae9	-0.14786877
203	0x3dc24727	0.094862275
204	0xbd65427c	-0.055971608
205	0x3e92470d	0.28569832
206	0xbd9bbd95	-0.07604519
207	0xbdbf2bb3	-0.09334507
208	0xbe5a57bf	-0.21322535
209	0xbc12d4aa	-0.008961836
210	0x3e0dda8c	0.138529
211	0x3df22523	0.118234895
212	0x3e4ad85e	0.198091
213	0xbd76e1c5	-0.060273904
214	0xbd057c93	-0.032589506
215	0x3e0a74d8	0.13521135
216	0x3da2810d	0.07934771
217	0xbd96c4e6	-0.07361774
218	0x3e51ec8b	0.2050039
219	0xbe7ae233	-0.2450035
220	0x3d84f2cb	0.064916216
221	0x3e0b90e1	0.13629486
222	0xbb014ebe	-0.0019730772
223	0x3d751798	0.059836954
224	0xbe2f59c7	-0.17124091
225	0x3d40540c	0.046955153
226	0x3db0061f	0.085949175
227	0xbdeaf322	-0.11472155
228	0x3e6818ab	0.2266566
229	0xbe1630d9	-0.14667071
230	0x3b63057b	0.0034640718
231	0x3dffb7d2	0.12486233
232	0x3e2b18a8	0.16708624
233	0xbe25b87b	-0.16183655
234	0x3d0049d2	0.0313204
235	0x3e275e1c	0.16344494
236	0xbd4918fa	-0.049096085
237	0xbd1818da	-0.037133075
238	0xbe37bd42	-0.1794329
239	0xbdc024f2	-0.09382047
240	0x3e2d6abc	0.16935247
241	0xbd6b2747	-0.057410505
242	0x3ddac2b4	0.10681668
243	0x3e5bfd83	0.21483426
244	0xbdc00584	-0.09376052
245	0x3e2e9b28	0.17051375
246	0xbe2250e9	-0.15851177
247	0xbd99ecea	-0.07515891
248	0xbd96d18c	-0.07364187
249	0x3da9bd41	0.082880504
250	0xbe23e094	-0.16003639
251	0x3d7a9d6b	0.06118528
252	0xbdcf2370	-0.10114181
253	0xbd9ecfed	-0.077545024
254	0xbe121bf4	-0.14268476
255	0x3e204de6	0.15654716

lstm.weight_hh_l1 f4 [256, 64]
0	0xbd0c5f9e	-0.034270875
1	0x3e8fd30c	0.28090703
2	0xbe895f96	-0.2683074
3	0xbe9bca42	-0.30427748
4	0xbdd04717	-0.10169809
5	0xbe918c24	-0.2842723
6	0xbd9f44ac	-0.0777677
7	0x3de8e2cf	0.11371385
8	0xbe75f4f9	-0.24019231
9	0x3e4a4f67	0.19756852
10	0x3cd8a238	0.02644454
11	0xbe1f82df	-0.15577267
12	0x3c90406a	0.01760884
13	0x3e842956	0.25812787
14	0x3e08a426	0.13343868
15	0xbe69056f	-0.22755979
16	0x3dfedd22	0.124445215
17	0xbed01981	-0.40644458
18	0xbdd33bab	-0.10314115
19	0xbd9c3f43	-0.07629254
20	0xbe9d7291	-0.3075147
21	0x3eb3f63d	0.35148802
22	0x3e95a56c	0.2922777
23	0xbe8abd12	-0.27097374
24	0x3e103941	0.1408434
25	0xbeacf91f	-0.33783814
26	0x3d869667	0.06571656
27	0x3ed034ac	0.40665185
28	0xbed9881d	-0.4248666
29	0x3da5967e	0.08085345
30	0x3ed25aa5	0.4108478
31	0xbe012550	-0.1261189
32	0x3dc6ae1a	0.09701176
33	0xbe77ab96	-0.24186549
34	0xbe35639f	-0.17713784
35	0x3e242caf	0.1603267
36	0xbec664f2	-0.3874889
37	0xbc5dd3d2	-0.013539271
38	0xbe83cbb9	-0.25741366
39	0xbe71b183	-0.23602872
40	0xbd9b9af6	-0.07597916
41	0x3d0215cd	0.031759072
42	0x3e310226	0.17285976
43	0xbe7bec62	-0.24601892
44	0x3e204b7b	0.15653794
45	0x3e9de66b	0.30839857
46	0x3e896e39	0.26841906
47	0x3e146ac9	0.1449386
48	0xbe68da19	-0.22739448
49	0x3e10cb43	0.14140038
50	0x3e4d24bb	0.20033543
51	0x3e9114e8	0.28336263
52	0xbebe3d16	-0.3715598
53	0xbd902fa2	-0.07040335
54	0x3ddd7e84	0.108151466
55	0xbe4af672	-0.19820574
56	0x3e65852b	0.22414081
57	0x3e397003	0.18109135
58	0xbe804e5a	-0.25059777
59	0x3d328ed6	0.04359325
60	0x3ec0e2e1	0.37673095
61	0x3eb699cb	0.3566421
62	0xbef468a4	-0.47736084
63	0xbe5f701b	-0.21820109
64	0x3b9a82b6	0.004715289
65	0xbd9f49bd	-0.07777736
66	0xb8df460e	-0.00010646517
67	0x3d99df64	0.075133115
68	0xbcf6ca18	-0.030125663
69	0x3b6096dd	0.003426961
70	0xbb010bed	-0.0019690946
71	0x3c4e46ac	0.012590092
72	0xbd89c470	-0.067269206
73	0xbdc63eea	-0.09679969
74	0x3c9850db	0.018593242
75	0xbda41431	-0.08011664
76	0x3d037c20	0.032100797
77	0xbd286154	-0.041108444
78	0x3ca60235	0.020264724
79	0x3d66175a	0.056174614
80	0x3cd9933a	0.02655946
81	0xbca1161a	-0.01966386
82	0xbdc81fd5	-0.097716965
83	0x3c3b3862	0.011427017
84	0x3d0792d6	0.033099018
85	0xbdd65604	-0.10465625
86	0xbd38c632	-0.04511089
87	0x3d9bc2e8	0.07605535
88	0x3ce91750	0.0284535
89	0xbdb38054	-0.08764711
90	0xbe36f6ca	-0.1786758
91	0xbc813ba6	-0.015775513
92	0xbc640429	-0.0139170075
93	0xbd8dfb78	-0.069327295
94	0xbb4cfb5f	-0.0031277759
95	0x3d8c4e77	0.068509035
96	0xbe110752	-0.14162949
97	0x3dbc3b33	0.09190979
98	0xbe288963	-0.16458659
99	0xbcd759c3	-0.026287919
100	0x3b07f48e	0.0020745131
101	0xbd14b341	-0.036303762
102	0xbd84239b	-0.06452104
103	0x3d6dc7f0	0.058052003
104	0x3dff4f13	0.12466254
105	0xbe0f869f	-0.14016198
106	0x3d880317	0.06641214
107	0xbdc34d8e	-0.09536277
108	0x3df5596c	0.119799465
109	0x3d9c25fd	0.07624433
110	0x3e1bb580	0.15205956
111	0xbe7d788b	-0.24753015
112	0xbd677d98	-0.05651626
113	0x3db73b41	0.08946849
114	0xbd3cef57	-0.04612669
115	0x3be3a396	0.006946991
116	0xbde7a274	-0.11310282
117	0x3d9788ec	0.07399163
118	0x3ddf735d	0.10910676
119	0x3c06618d	0.008201969
120	0x3de625ec	0.11237702
121	0x3dbc5578	0.09195989
122	0xbd3f340b	-0.04668049
123	0x3db9b8f2	0.09068479
124	0xbd50d0aa	-0.050980248
125	0xbd9e2265	-0.07721404
126	0x3e081210	0.1328814
127	0xbd3f030a	-0.046633758
128	0x3e0c9f8e	0.1373274
129	0x3e12da1e	0.14341018
130	0xbe0aff1a	-0.13573876
131	0xbe87d127	-0.26526758
132	0xbddf2a7c	-0.10896775
133	0xbcb63274	-0.022240855
134	0xbe07b6ed	-0.13253374
135	0x3dd3209f	0.10308956
136	0x3e0f8bdc	0.14018196
137	0x3e4b72a4	0.1986795
138	0x3c6a2060	0.014289945
139	0xbcd3cb5f	-0.02585381
140	0xbe35f4cc	-0.17769164
141	0x3afbbbac	0.0019205711
142	0x3d7536eb	0.059866827
143	0x3d5f1cd8	0.054470867
144	0x3dfdb628	0.12388259
145	0xba7bbb5e	-0.000960281
146	0xbdc2fe10	-0.09521115
147	0xbe147936	-0.14499363
148	0xbd8a3cdd	-0.0674989
149	0x3df41ba6	0.11919336
150	0xbd352d53	-0.044232678
151	0xbda027f3	-0.0782012
152	0xbdeb42f2	-0.11487378
153	0xbbf86cc8	-0.007581327
154	0x3d288df9	0.04115102
155	0x3d77a1b6	0.060456954
156	0xbd85b472	-0.06528558
157	0xbde7460c	-0.11292657
158	0xbe03a6d2	-0.12856606
159	0x3dde5b49	0.10857255
160	0xbcc414f7	-0.023935778
161	0x3d5b466e	0.053533964
162	0x3e113166	0.14179
163	0xbde36422	-0.11103083
164	0xbcc5739e	-0.024102982
165	0x3da1e57e	0.079051
166	0xbc7547cc	-0.014970731
167	0xbe010254	-0.12598544
168	0x3e0d48e1	0.13797332
169	0xbd1c5eff	-0.038176533
170	0x3d8bc4df	0.068246596
171	0xbd9f02f1	-0.07764233
172	0x3d2d6a16	0.0423375
173	0x3d8dbf04	0.06921199
174	0xbdd46c89	-0.10372264
175	0x3dc11214	0.09427276
176	0xbd9330f0	-0.071870685
177	0xbdb223a7	-0.086982064
178	0x3d3ba719	0.045813654
179	0xbdf682ed	-0.12036691
180	0xbe15fc59	-0.14647044
181	0x3cd5bc95	0.0260909
182	0x3e3900f6	0.18066773
183	0x3c1b9fe9	0.009498575
184	0xbdaa8393	-0.08325877
185	0x3d86afcc	0.06576499
186	0x3e26da7f	0.16294287
187	0xbd87bbfc	-0.06627652
188	0xbdd9b5bf	-0.106303684
189	0x3d68d748	0.056845933
190	0x3deb2a36	0.114826605
191	0x3c0ee498	0.008721493
192	0xbe62987a	-0.22128478
193	0x3c83fb36	0.016110998
194	0xbe3b3ee1	-0.18285705
195	0x3d542366	0.05179157
196	0x3df37d11	0.11889089
197	0xbe3466cb	-0.17617337
198	0xbe0f445b	-0.1399092
199	0x3e1ab1cc	0.15106887
200	0x3dbf1928	0.0933097
201	0x3e72036d	0.2363412
202	0x3e25365b	0.16134016
203	0xbe88a78c	-0.26690328
204	0x3d89c8b6	0.06727736
205	0x3e45d824	0.19320732
206	0x3e400378	0.18751323
207	0xbe395fd2	-0.18102959
208	0x3dac7262	0.08420254
209	0x3e24d9df	0.16098736
210	0xbe06524d	-0.13117333
211	0xbe8cf418	-0.2752998
212	0x3da477ff	0.080307
213	0x3e8b559a	0.27213746
214	0x3d03da6e	0.032190733
215	0xbde0f186	-0.10983567
216	0x3dd98559	0.10621137
217	0x3de3dafe	0.11125754
218	0x3e164abc	0.14676946
219	0x3e57dbea	0.21079984
220	0xbcf1b69e	-0.029506024
221	0x3e5cb2c9	0.21552576
222	0x3e4cd62f	0.2000358
223	0xbe112a28	-0.14176238
224	0xbea90e54	-0.33018744
225	0xbe6b98c7	-0.23007499
226	0xbe821806	-0.25408953
227	0x3d6cdc01	0.057827
228	0xbe81b421	-0.2533274
229	0x3e658a39	0.22416009
230	0xbea13dc2	-0.3149243
231	0x3d20aa41	0.039224867
232	0x3e888be1	0.2666922
233	0x3e9a063f	0.3008289
234	0x3e10e3d2	0.14149407
235	0xbe191f4c	-0.14953345
236	0x3de0ba9f	0.10973095
237	0x3e55a1fe	0.20862576
238	0x3e965cd0	0.29367685
239	0x3dd1829f	0.10229992
240	0xbe222b7d	-0.15836902
241	0x3b2bbef3	0.0026206344
242	0x3e69a842	0.22818092
243	0x3e881474	0.26578104
244	0xbeaca57b	-0.33720002
245	0x3ce31463	0.027719682
246	0x3d7fde0b	0.062467616
247	0xbdbc459d	-0.09192965
248	0x3ea4f1ca	0.3221572
249	0x3e2a3e09	0.16625227
250	0xbea19134	-0.31556094
251	0x3a90c60d	0.0011045352
252	0x3dcf3fb5	0.10119573
253	0x3e9909f6	0.29890412
254	0xbbb2de7a	-0.00545865
255	0x3d3c82f5	0.046023328

lstm.bias_ih_l1 f4 [256]
0	0x3eaccdaa	0.3375066
1	0x3dc226f8	0.09480089
2	0x3de20167	0.11035424
3	0x3e1fefac	0.15618771
4	0x3e980e94	0.29698622
5	0x3dbfdcc8	0.093682826
6	0x3e4355ce	0.190757
7	0x3d059a9f	0.03261816
8	0x3d8ed2e9	0.06973822
9	0x3dd4a07e	0.10382174
10	0xbda00165	-0.07812766
11	0xbd974b93	-0.073874615
12	0x3bead39d	0.0071663396
13	0x3cb850e4	0.02249951
14	0x3d424a9b	0.04743443
15	0x3e5644d8	0.209247
16	0xbc3c43c6	-0.011490768
17	0x3d6c0744	0.057624117
18	0x3e2a09aa	0.16605249
19	0x3ddf8fd5	0.10916106
20	0xbd6ca6af	-0.05777615
21	0x3e86fec2	0.2636624
22	0x3e253dc7	0.16136847
23	0xbd2da323	-0.042391907
24	0x3d53830f	0.05163866
25	0xbc3f5e32	-0.011680173
26	0x3d3def0f	0.046370562
27	0xbd5e0ac8	-0.0542095
28	0x3e53ec8b	0.20695703
29	0x3e400177	0.18750559
30	0xbcadf6ac	-0.021235786
31	0xb8f88ce2	-0.00011851803
32	0x3e137f46	0.1440402
33	0x3dc45968	0.095873654
34	0x3dd30148	0.10302979
35	0x3e2f60a0	0.17126703
36	0x3da454d2	0.08023991
37	0x3e27d645	0.16390331
38	0x3dabad65	0.08382682
39	0xba261326	-0.0006335251
40	0x3e2159ba	0.15756884
41	0x3e4e2452	0.20131043
42	0x3e16982c	0.14706486
43	0x3d51ad53	0.051190685
44	0x3c2467c0	0.010034502
45	0xbc44ada9	-0.012004294
46	0x3e0b59d1	0.13608481
47	0x3e647e0c	0.22313708
48	0x3e26be8b	0.16283624
49	0x3da42fb9	0.08016915
50	0x3c89cfda	0.016822744
51	0x3e470d64	0.19438702
52	0x3e1e2849	0.15445055
53	0x3d8a2766	0.06745796
54	0x3e2a6db4	0.16643411
55	0xbd4bb583	-0.04973365
56	0x3e5e7941	0.21725942
57	0x3e566c88	0.20939839
58	0x3e395aa1	0.18100978
59	0x3e14aa10	0.14517999
60	0x3e09ba6e	0.13450024
61	0x3de87110	0.1134969
62	0x3cbd03ff	0.023073195
63	0x3d0aad9e	0.03385698
64	0x3e24ecf8	0.16106021
65	0xbcdc1f25	-0.02687032
66	0xbd11f4a0	-0.035633683
67	0x3d47c69a	0.048773386
68	0x3c1cc822	0.0095692
69	0xbdb07628	-0.086162865
70	0x3dfedfcf	0.12445032
71	0xbd3acf4d	-0.045607854
72	0x3d96cfcd	0.073638536
73	0xbcb0a8b5	-0.02156482
74	0x3e02b324	0.12763649
75	0x3dfd31d6	0.12363021
76	0xbc110db0	-0.008853361
77	0xbd78da4f	-0.06075507
78	0xbd9cd376	-0.076575205
79	0x3d056177	0.032563653
80	0x3e4783d0	0.19483876
81	0x3d4bcdbd	0.049756754
82	0xbdf99df0	-0.12188327
83	0x3bc83641	0.006109983
84	0x3d58e3c9	0.052951608
85	0x3d3ccabe	0.046091788
86	0xbd9e31e3	-0.07724359
87	0x3db05b97	0.086112194
88	0x3e1b86cd	0.15188141
89	0x3d346e01	0.04405022
90	0xbd9efff2	-0.077636614
91	0x3e0fffe3	0.14062457
92	0x3e10755a	0.14107266
93	0x3cf8af73	0.030357098
94	0xbd74197e	-0.059594624
95	0xbda1d0b2	-0.079011336
96	0xbcedea2a	-0.029042322
97	0x3d960ce0	0.073266745
98	0x3dd56d47	0.104212336
99	0x3dc9a46e	0.098458156
100	0x3e006944	0.12540156
101	0x3e234c2b	0.15947025
102	0x3dfcf742	0.12351848
103	0x3e0043fc	0.12525934
104	0x3a8bc4e1	0.0010663533
105	0x3d81e90b	0.063432775
106	0x3e121c57	0.14268623
107	0x3d29a4a7	0.04141679
108	0xbddd5848	-0.10807854
109	0x3d8d338a	0.06894596
110	0x3cff5506	0.031168472
111	0x3da308f8	0.07960695
112	0x3e09bf22	0.13451818
113	0x3cba9ecd	0.0227808
114	0x3d47d9b5	0.048791606
115	0x3d7e29a2	0.062051423
116	0x3e190339	0.14942636
117	0x3e033041	0.12811376
118	0x3e0b1b06	0.13584527
119	0xbddff8cc	-0.10936126
120	0x3dc5183f	0.09623765
121	0x3d752a33	0.059854697
122	0xbcff8cbd	-0.031195039
123	0x3dc8e5d8	0.09809464
124	0xbd0c8ac2	-0.034312017
125	0x3a71cbbd	0.000922378
126	0x3cc5f850	0.024166256
127	0xbdf0f49e	-0.11765407
128	0x3dc424da	0.095773414
129	0x3d749927	0.05971637
130	0xbd6410ec	-0.0556802
131	0xbdbab6c8	-0.09116894
132	0xbd90361e	-0.07041572
133	0xbe1c6f7f	-0.15276907
134	0xbd3aa20b	-0.045564692
135	0x3dc55140	0.09634638
136	0xbd1208ef	-0.03565305
137	0x3d7b6342	0.061373957
138	0xbd984556	-0.074351
139	0xbe11e615	-0.14247926
140	0x3c0bd67c	0.008535024
141	0x3df1d044	0.11807302
142	0x3cec5be7	0.028852416
143	0x3da4cf8e	0.080474004
144	0xbd4a8998	-0.049447626
145	0xbdd887ae	-0.10572754
146	0xbdf433d1	-0.11923946
147	0xbd819cee	-0.0632876
148	0xbdfda91e	-0.12385772
149	0x3ded62c7	0.11591106
150	0x3e1370b8	0.14398468
151	0xbd886059	-0.06659002
152	0xbd739cfc	-0.059475884
153	0x3d7ab4b2	0.06120748
154	0xbcc5b6f6	-0.024135094
155	0x3db3a7a6	0.08772211
156	0xbcfed948	-0.031109467
157	0xbcbba5c1	-0.022906186
158	0x3e02ce1b	0.12773935
159	0xbd5c9bc8	-0.053859502
160	0xbdc1c4fa	-0.094613984
161	0xbdaff589	-0.08591754
162	0xbb8e8a3a	-0.004349974
163	0xbd5b3788	-0.053519756
164	0xbe0f1146	-0.13971433
165	0xbe058fec	-0.13043183
166	0xbda4b71e	-0.08042739
167	0xbe1602d3	-0.14649515
168	0x3cd17435	0.025568107
169	0xbe11110e	-0.14166662
170	0x3c56f48d	0.013119829
171	0x3d0e085a	0.034675933
172	0xbc84ffa1	-0.016235175
173	0x3db1e442	0.08686115
174	0xbca818fe	-0.02051973
175	0xbd9862fa	-0.07440753
176	0xbd6d0cef	-0.057873663
177	0x3d4c8a8a	0.04993681
178	0x3e0414ab	0.12898509
179	0x3ca13843	0.019680148
180	0xbdf82e41	-0.12118197
181	0xbdef5f5b	-0.116881095
182	0x3d4a842a	0.049442448
183	0xbdd01b3e	-0.10161446
184	0x3e00f4be	0.12593362
185	0x3d89ad16	0.06722467
186	0xbd5c2bb1	-0.053752605
187	0x3ddbb396	0.10727613
188	0x3dd70701	0.10499383
189	0x3d4c4fbb	0.049880724
190	0xbd44f00e	-0.048080496
191	0xbdde8e35	-0.108669676
192	0x3e849e98	0.25902247
193	0x3d5f53df	0.054523345
194	0x3e39f905	0.181614
195	0x3e083876	0.13302788
196	0x3da6a85a	0.08137579
197	0x3dace964	0.08442953
198	0xbc865e7e	-0.01640248
199	0x3cee29b3	0.029072618
200	0x3e490df0	0.19634223
201	0x3e678c40	0.22612095
202	0x3dc61dd6	0.096736595
203	0x3deb1016	0.114776775
204	0x3dc680c9	0.096925326
205	0x3cb745e3	0.022372192
206	0x3d8126a0	0.06306195
207	0x3d2119c7	0.039331224
208	0x3d9b2e04	0.07577136
209	0x3d1969ea	0.037454523
210	0x3dc7b977	0.097521715
211	0x3dfbf2e0	0.12302184
212	0x3ddadb61	0.106863745
213	0x3e584dd1	0.21123435
214	0x3e0c15d9	0.13680209
215	0xbce23595	-0.02761344
216	0xbd96b4da	-0.073587134
217	0x3e132f75	0.14373572
218	0x3e5d94a4	0.21638733
219	0xbd83bf11	-0.064329274
220	0x3caeace3	0.021322673
221	0x3e9a53c8	0.30142045
222	0x3c8a26de	0.016864236
223	0x3cdb00fd	0.02673387
224	0x3e05e9c8	0.13077462
225	0x3e1010cd	0.14068909
226	0x3dc73dfe	0.09728621
227	0x3d40bc31	0.047054473
228	0x3d57b67f	0.052664276
229	0x3e11db6c	0.14243859
230	0xbc9ec892	-0.019382749
231	0x3df41208	0.11917502
232	0x3de4da12	0.11174406
233	0x3e41fecf	0.18944858
234	0x3d3cf535	0.046132285
235	0xbbef47c0	-0.0073022544
236	0xbc480717	-0.012208722
237	0x3db3e816	0.08784501
238	0x3e298227	0.16553555
239	0x3e3b57f4	0.1829527
240	0xbc934734	-0.017978288
241	0x3e4d0cbd	0.2002439
242	0xbdb3d3e0	-0.08780646
243	0x3e2dacb4	0.16960412
244	0xbdaa5f55	-0.083189644
245	0x3d8ffae1	0.07030273
246	0x3e076235	0.13221057
247	0x3e1b8dc5	0.151908
248	0x3e0bfca9	0.13670601
249	0x3e9c31c0	0.30506706
250	0x3d83c80e	0.06434642
251	0x3b8edead	0.004360041
252	0x3e253af3	0.16135769
253	0x3d593b9c	0.053035364
254	0x3b4e0d2a	0.0031440952
255	0x3e02562d	0.12728186
