TradingAlgorithm/model.pth (torch, 55269 bytes, 9 tensors)

lstm.weight_ih_l0 f4 [128, 1]
0.36077687 0.253671 -0.09163905 0.1134671 0.007908838 -0.2604365 -0.07738182 0.04150884
0.31458965 -0.26566866 -0.15159033 0.2665718 -0.09376584 0.31244513 0.29467678 0.12253289
0.044634372 0.102385774 -0.27547568 -0.07980603 -0.18750748 -0.076626666 0.15102486 0.04723709
-0.15005551 -0.06661781 0.35178643 -0.20349345 -0.034344885 0.34155437 0.26206085 0.15004025
0.22446494 0.12531926 0.011106061 -0.022575632 -0.23506905 -0.20715722 -0.31742877 0.31965044
0.050998423 -0.23838373 -0.018923417 0.18819708 0.13738973 0.1542908 0.05766148 -0.04940232
0.18274091 0.0444942 -0.1658527 -0.19823243 -0.093758926 -0.16060399 0.36969787 -0.009287735
0.043853883 0.061115038 0.23701829 -0.1440635 0.1781183 0.08197452 0.26843405 0.306068
0.26303887 0.31195626 -0.31773388 0.35308826 -0.31642973 0.17773615 0.053311866 -0.2844716
-0.31084284 0.14903912 -0.177084 0.30860364 0.24810606 0.22694036 -0.3350731 0.30349022
-0.26107734 0.20577389 -0.33562407 -0.21129075 0.19536462 0.27033922 -0.27741128 -0.27781627
-0.046703696 0.29338357 -0.30208194 0.2470166 0.14391182 -0.3116012 -0.26946712 0.26397428
0.3524582 0.10948698 -0.16805165 0.032277215 -0.28389567 -0.19154814 -0.1409382 0.17561695
0.39382145 -0.3534143 -0.04309372 0.09344751 -0.04787712 0.1617008 0.26180914 -0.14106292
0.3009526 0.09570843 -0.13300173 -0.16711855 0.045806583 -0.041653067 0.45044103 0.007386757
-0.17688546 -0.07746534 0.43337876 -0.105824836 -0.01444442 0.3034415 0.15818122 0.10379402
00000000: bfb7 b83e 2ae1 813e 41ad bbbd 7061 e83d
00000010: 1294 013c ef57 85be 5c7a 9ebd 2c05 2a3d
00000020: e511 a13e b905 88be 7f3a 1bbe 197c 883e
00000030: 4e08 c0bd cff8 9f3e e0df 963e 86f2 fa3d
00000040: 88d2 363d a2af d13d 260b 8dbe 5871 a3bd
00000050: f601 40be 71ee 9cbd 43a6 1a3e ae7b 413d
00000060: 27a8 19be eb6e 88bd 5a1d b43e 9660 50be
00000070: 39ad 0cbd 37e0 ae3e d72c 863e 27a4 193e
00000080: 23da 653e b153 003e 32f6 353c 88f0 b8bc
00000090: f1b5 70be 0621 54be 0686 a2be 39a9 a33e
000000a0: b9e3 503d dd1a 74be 4805 9bbc bcb6 403e
000000b0: e5af 0c3e 68fe 1d3e 722e 6c3d 165a 4abd
000000c0: 6f20 3b3e 8d3f 363d 4ad5 29be 71fd 4abe
000000d0: ae04 c0bd 5f75 24be 0a49 bd3e 962b 18bc
000000e0: 21a0 333d c353 7a3d ecb4 723e 6285 13be
000000f0: a564 363e 42e2 a73d 3070 893e f2b4 9c3e
00000100: 08ad 863e bbb8 9f3e 04ae a2be fcc7 b43e
00000110: 1403 a2be 7700 363e 8b5d 5a3d 43a6 91be
00000120: cb26 9fbe b69d 183e 8255 35be 4c01 9e3e
00000130: 840f 7e3e 0e63 683e b48e abbe 1263 9b3e
00000140: eeab 85be 64b6 523e ebd6 abbe 9a5c 58be
00000150: aa0d 483e e769 8a3e da08 8ebe ef3d 8ebe
00000160: 604c 3fbd 5f36 963e 7caa 9abe ebf1 7c3e
00000170: 9f5d 133e 318a 9fbe 98f7 89be a327 873e
00000180: 6775 b43e b63a e03d bb15 2cbe 1d35 043d
00000190: c65a 91be 3225 44be 1a52 10be eed4 333e
000001a0: f7a2 c93e b8f2 b4be 0a83 30bd 6861 bf3d
000001b0: cd1a 44bd e594 253e d90b 863e cc72 10be
000001c0: 7616 9a3e c802 c43d 9b31 08be 2021 2bbe
000001d0: af9f 3b3d 689c 2abd 35a0 e63e 9c0c f23b
000001e0: 7621 35be 26a6 9ebd d2e3 dd3e b1ba d8bd
000001f0: 4aa8 6cbc af5c 9b3e 42fa 213e f691 d43d

lstm.weight_hh_l0 f4 [128, 32]
-0.15930101 0.13262588 0.11760822 -0.18665867 0.04532664 0.09707528 -0.020055953 0.050992254
0.13183144 -0.10887103 -0.115137346 -0.0031931465 -0.14022334 0.12710707 0.145442 0.17451447
0.07901769 0.0068636327 0.03134355 0.11059809 -0.029137682 -0.069383256 0.0028837316 0.0757403
0.13738143 -0.2218955 -0.00076475966 -0.19082642 -0.17707777 0.01607041 -0.06988327 -0.16323309
0.047340877 0.16957103 0.23211434 0.18980879 -0.122158214 -0.24296196 -0.024304729 -0.030943066
-0.20033014 -0.12531073 -0.03486186 0.112052284 -0.123049095 0.05925846 -0.062408112 0.07617671
-0.08736983 0.023871826 0.116458274 0.22881953 -0.20700432 -0.008299323 -0.109452985 -0.022532996
0.1897603 -0.11026617 -0.024031086 -0.073353276 -0.0441462 0.083154485 0.040939353 0.062129773
0.13604529 0.035504214 -0.02511855 -0.018931255 -0.12352095 0.06764823 0.07226681 0.07555972
-0.075334154 0.016553953 -0.13668227 0.08073484 -0.0103366 0.07917304 -0.29515848 -0.06614938
0.0440529 0.017041989 0.20042253 0.06868758 0.037170835 -0.13014495 -0.06667069 -0.1566506
-0.026516585 -0.07653745 -0.2224561 -0.18760148 0.17429203 -0.09229308 -0.047429897 0.14209458
0.14532356 0.24599156 0.05738583 0.03384121 0.08172007 0.0016718723 -0.14624521 -0.14980735
-0.010426282 -0.27216074 0.1180769 0.18359429 0.09993678 -0.029178523 -0.10064464 -0.16187432
-0.03841664 -0.12457274 -0.09534026 -0.013795533 -0.14564346 -0.082683906 -0.10856681 0.01645107
-0.025334986 0.09186104 -0.0690726 0.011354542 -0.084308736 0.059898492 0.036062565 0.19999804
-0.0088470355 0.02949443 0.016452823 -0.12613724 0.049097683 -0.045941524 0.025916748 -0.040815387
-0.0671957 0.05130143 0.18268818 0.050884582 0.099481426 -0.07937821 0.08209438 0.037022054
-0.16652696 0.051659506 0.042382434 0.018294634 -0.005739114 -0.05122909 -0.21331297 -0.014337351
0.0142403925 -0.18356922 0.041631903 0.11151872 -0.117095694 0.044401772 -0.22255631 0.23961861
-0.056140047 -0.09168605 0.068552665 -0.12152764 0.06607826 0.12199151 0.03332502 -0.015093493
-0.11511117 -0.09854946 -0.01653652 0.022165626 -0.03413798 -0.1397575 0.21508111 -0.08976343
-0.18626957 -0.05904177 -0.1810866 0.14881937 -0.13828766 -0.014871687 0.21355857 -0.06528531
0.014646751 -0.119059056 0.0327452 0.0097619435 -0.14021628 0.07325434 0.18858823 -0.061818555
0.056118306 -0.2522509 0.13892996 -0.27527025 -0.12440508 0.17517824 0.09604759 -0.072202325
0.021662716 -0.0040556877 -0.044676416 -0.016672716 0.041525457 0.010055693 0.25341097 0.09845357
0.21041211 -0.09480907 -0.08527271 -0.0035289794 -0.0094399825 0.10187276 0.0068141576 0.14946526
-0.1865453 0.041425448 0.20069508 0.09267895 -0.08782117 0.032498416 0.25180992 0.0056071607
0.011317117 0.122506015 0.18850353 0.17973857 0.0006145616 -0.18851456 -0.19847675 -0.07785473
0.025320295 0.016671894 0.092420526 -0.09159696 0.02384247 -0.06862953 0.010515161 0.14033367
-0.167128 -0.13184296 0.028358517 0.1409543 0.0014209349 -0.05461823 -0.038675953 -0.038041532
-0.028679667 0.02807113 -0.11657956 -0.00076206715 0.17600112 0.15152812 0.09751192 0.05443598
00000000: ce1f 23be 14cf 073e 94dc f03d 7323 3fbe
00000010: 6da8 393d 68cf c63d 624c a4bc 41dd 503d
00000020: d2fe 063e c6f7 debd 21cd ebbd 1c44 51bb
00000030: b596 0fbe 5b28 023e bfee 143e ecb3 323e
00000040: 07d4 a13d 53e8 e03b 1862 003d 4081 e23d
00000050: 26b2 eebc cf18 8ebd fdfc 3c3b bb1d 9b3d
00000060: b8ad 0c3e 9338 63be 277a 48ba 0068 43be
00000070: e053 35be 18a6 833c f61e 8fbd 9326 27be
00000080: 82e8 413d 07a4 2d3e 62af 6d3e 3c5d 423e
00000090: 162e fabd 05cb 78be b61a c7bc 507c fdbc
000000a0: 5823 4dbe 7551 00be 4fcb 0ebd ab7b e53d
000000b0: 2a01 fcbd 00b9 723d a69f 7fbd 8902 9c3d
000000c0: f4ee b2bd d98e c33c ad81 ee3d ab4f 6a3e
000000d0: f1f8 53be e2f9 07bc e328 e0bd 1e97 b8bc
000000e0: 8650 423e 3bd3 e1bd d7dc c4bc 3e3a 96bd
000000f0: a5d2 34bd e64c aa3d 06b0 273d ca7b 7e3d
00000100: 754f 0b3e de6c 113d 6bc5 cdbc b815 9bbc
00000110: 8df8 fcbd 288b 8a3d 9f00 943d 0ebf 9a3d
00000120: cb48 9abd 289c 873c 70f6 0bbe 4f58 a53d
00000130: d85a 29bc 7a25 a23d 031f 97be 5379 87bd
00000140: d070 343d a49b 8b3c 903b 4d3e 13ac 8c3d
00000150: 7240 183d b844 05be a58a 88bd 0469 20be
00000160: 4f39 d9bc abbf 9cbd 88cb 63be 9a1a 40be
00000170: 9c79 323e 2804 bdbd da45 42bd 3e81 113e
00000180: b3cf 143e 36e5 7b3e 670d 6b3d 159d 0a3d
00000190: da5c a73d ba22 db3a 4ec1 15be 1967 19be
000001a0: ffd2 2abc a758 8bbe 4dd2 f13d 2400 3c3e
000001b0: a8ab cc3d cc07 efbc c71e cebd 62c2 25be
000001c0: c45a 1dbd fe1f ffbd c141 c3bd a906 62bc
000001d0: 8f23 15be 2e56 a9bd 4758 debd 65c4 863c
000001e0: 518b cfbc a421 bc3d ef75 8dbd 6708 3a3c
000001f0: 0faa acbd 1f58 753d 57b6 133d 49cc 4c3e
00000200: 28f3 10bc 4e9e f13c 12c8 863c 1f2a 01be
00000210: a71a 493d 2e2d 3cbd 5c4f d43c 092e 27bd
00000220: e69d 89bd 7321 523d 9c12 3b3e 5a6c 503d
00000230: ebbc cb3d 0b91 a2bd 1921 a83d 70a4 173d
00000240: 0b86 2abe eb98 533d 3499 2d3d a1de 953c
00000250: 2d0f bcbb 98d5 51bd b76e 5abe 35e7 6abc
00000260: 8950 693c 92f9 3bbe 3786 2a3d ed63 e43d
00000270: decf efbd a2de 353d cde5 63be 955e 753e
00000280: 1bf3 65bd e5c5 bbbd 5765 8c3d 7ce3 f8bd
00000290: 0a54 873d afd6 f93d d17f 083d b34a 77bc
000002a0: 68bf ebbd 4dd4 c9bd 9977 87bc b094 b53c
000002b0: 44d4 0bbd 971c 0fbe 393e 5c3e e4d5 b7bd
000002c0: 73bd 3ebe c8d5 71bd c46e 39be 1b64 183e
000002d0: 489b 0dbe 60a8 73bc 19af 5a3e 4eb4 85bd
000002e0: edf8 6f3c 3cd5 f3bd d51f 063d 8ff0 1f3c
000002f0: db94 0fbe 5f06 963d 461d 413e 7435 7dbd
00000300: 4fdc 653d 0827 81be a843 0e3e 39f0 8cbe
00000310: 17c8 febd ed61 333e 99b4 c43d d0de 93bd
00000320: 0276 b13c 93e5 84bb 9efe 36bd 3895 88bc
00000330: 9916 2a3d a2c0 243c 15bf 813e 06a2 c93d
00000340: 4676 573e 422b c2bd 75a3 aebd 7346 67bb
00000350: 28aa 1abc aaa2 d03d 4c49 df3b 6c0d 193e
00000360: bb05 3fbe bbad 293d 0383 4d3e 76ce bd3d
00000370: 96db b3bd 0f1d 053d 3bed 803e 46bc b73b
00000380: 6e6b 393c 6fe4 fa3d 1207 413e 630d 383e
00000390: 881a 213a f609 41be 7d3d 4bbe 4d72 9fbd
000003a0: 826c cf3c 7f93 883c f946 bd3d 3097 bbbd
000003b0: 4951 c33c a48d 8cbd c847 2c3c a1b3 0f3e
000003c0: 9a23 2bbe d701 07be 1f50 e83c 5356 103e
000003d0: aa3e ba3a 5db7 5fbd ad6a 1ebd 70d1 1bbd
000003e0: 9ff1 eabc 6df5 e53c 44c1 eebd 76c5 47ba
000003f0: a339 343e 302a 1b3e 54b4 c73d 43f8 5e3d

lstm.bias_ih_l0 f4 [128]
0.102670975 -0.04908936 0.1682285 0.12386675 0.22569312 -0.034642827 0.08156361 0.08204937
0.13870028 -0.059140045 0.1818637 0.10290669 0.16495012 -0.13826466 0.06174587 0.12379763
0.17866133 0.1152094 0.11542936 -0.13239235 0.0054491544 0.03568176 -0.008168878 0.13884057
-0.11500746 -0.02506999 -0.004002933 0.045140773 -0.15332475 -0.033107135 0.011989029 -0.1248932
-0.04741305 -0.086944975 0.12417126 -0.15980859 0.08887022 0.11683204 -0.014615724 0.098267205
-0.05491054 -0.21573737 0.059342925 -0.20987284 -0.08145599 -0.16536628 -0.091147065 -0.07311205
0.1585644 -0.014162247 -0.16797188 -0.16083227 -0.015179332 -0.029602284 0.1786132 -0.0045881346
-0.24973008 0.02191678 -0.060263142 -0.024155904 -0.21170956 -0.15822823 0.017148213 -0.04475751
-0.06417717 -0.035727207 0.15314145 0.023919303 0.07586906 0.026931593 -0.10936928 0.0011710585
-0.058762394 -0.12849393 0.00940458 -0.022331463 0.057469025 -0.022572285 -0.117927514 -0.0070346
-0.112148866 0.10634566 0.13720696 0.008033689 -0.11367957 -0.0035599442 -0.116106085 -0.058189675
0.10814009 0.05542811 -0.0048902617 -0.025802525 0.091547705 -0.04063476 -0.12089785 -0.012461409
0.13276125 0.07193524 0.23886009 0.12552297 -0.06557543 0.009591064 -0.11224944 -0.13780223
-0.007679824 0.15012376 0.16402836 0.094299 0.09974297 0.025153289 0.07489731 0.05768627
-0.017111422 -0.14684054 -0.11512024 -0.051533565 0.006909433 0.17664497 -0.031200666 -0.09923055
-0.14432535 0.29326278 -0.05484952 0.24273376 -0.13281417 -0.04950627 -0.106037974 0.10774998
00000000: 2945 d23d ed11 49bd 1844 2c3e daad fd3d
00000010: 191c 673e a3e5 0dbd d20a a73d 8009 a83d
00000020: 7207 0e3e d53c 72bd 7a3a 3a3e bec0 d23d
00000030: afe8 283e 4095 0dbe 3de9 7c3d 9d89 fd3d
00000040: fff2 363e e8f2 eb3d 3a66 ec3d dc91 07be
00000050: d28e b23b 0a27 123d c2d6 05bc 392c 0e3e
00000060: 0889 ebbd 945f cdbc 092b 83bb 88e5 383d
00000070: 2a01 1dbe 599b 07bd a26d 443c 02c8 ffbd
00000080: 3034 42bd 3510 b2bd 804d fe3d dda4 23be
00000090: 9701 b63d a345 ef3d ca76 6fbc 5140 c93d
000000a0: e0e9 60bd 42ea 5cbe 9111 733d e8e8 56be
000000b0: 66d2 a6bd c755 29be 50ab babd c5bb 95bd
000000c0: b55e 223e c508 68bc d200 2cbe 37b1 24be
000000d0: bcb2 78bc 7d80 f2bc 61e6 363e 1058 96bb
000000e0: 3eb9 7fbe d28a b33c 7cd6 76bd 9ae2 c5bc
000000f0: 64ca 58be 9506 22be 697a 8c3c a753 37bd
00000100: 526f 83bd b156 12bd 1dd1 1c3e 6af2 c33c
00000110: 3d61 9b3d a59f dc3c 00fd dfbd 347e 993a
00000120: d6b0 70bd ea93 03be ab15 1a3c 79f0 b6bc
00000130: a464 6b3d 83e9 b8bc fb83 f1bd 8082 e6bb
00000140: 4eae e5bd c1cb d93d fb7f 0c3e bc9f 033c
00000150: d6d0 e8bd f44d 69bb 07c9 edbd 4c58 6ebd
00000160: 8d78 dd3d 9608 633d 7d3e a0bb d15f d3bc
00000170: 5d7d bb3d a270 26bd 4b99 f7bd f02a 4cbc
00000180: 91f2 073e c852 933d bd97 743e 1889 003e
00000190: 694c 86bd d723 1d3c 09e3 e5bd 071c 0dbe
000001a0: 08a7 fbbb 0bba 193e 0df7 273e d61f c13d
000001b0: 0b46 cc3d 450e ce3c c363 993d 7048 6c3d
000001c0: 412d 8cbc 5e5d 16be 29c4 ebbd dc14 53bd
000001d0: 8668 e23b 6be2 343e 8a98 ffbc 6339 cbbd
000001e0: 06ca 13be 8a26 963e e4a9 60bd 338f 783e
000001f0: 7000 08be 16c7 4abd 702a d9bd 06ac dc3d

lstm.bias_hh_l0 f4 [128]
-0.036306433 0.18835807 0.12899376 0.06702121 -0.04775172 -0.16935831 -0.11133256 0.08228558
-0.123159274 0.04035161 0.01843608 -0.06159754 -0.036747076 -0.15241458 0.0652176 -0.013854817
-0.13770856 -0.13257025 0.13853495 -0.12718044 -0.1002102 -0.024446433 -0.052823074 0.039817125
-0.019319449 0.22285841 0.010575004 -0.07830388 0.030291796 -0.11721304 -0.040383395 -0.045849323
0.08984362 -0.08809122 0.13638772 0.16416664 0.14659347 0.15562373 -0.058668695 -0.081508175
-0.08700747 -0.14975858 -0.16896059 0.12448357 0.12305881 -0.13810295 -0.18605739 -0.18333149
0.15964295 -0.13676284 0.085719086 0.11137728 -0.02148392 0.037624348 0.021018544 0.053224877
-0.2691001 -0.044152796 0.09634617 0.054252364 -0.2183835 -0.10324767 -0.051010344 -0.058829844
0.18025503 0.10169955 -0.029288461 -0.06811422 0.13270415 -0.13769263 -0.15418407 -0.09459176
-0.05983181 0.10166766 0.16927373 -0.025768833 -0.055582598 0.08143448 -0.15076174 -0.03858079
0.08414999 -0.13111435 0.08451609 0.016055677 -0.014908258 -0.06293221 -0.08788317 0.09583075
-0.043836594 -0.11379162 -0.09877233 -0.032405768 0.12964119 -0.14772391 -0.081424534 0.10461894
-0.008968137 -0.06699037 0.22501923 -0.0003286673 -0.047255557 0.15882996 0.06040896 0.06762784
0.1088613 0.12968232 0.0025749644 0.18751536 -0.06604426 0.08594285 -0.09508177 0.05079468
0.14090317 -0.19334541 0.105407424 0.18393451 -0.18959863 0.10710832 0.13155915 0.026397794
-0.18352151 0.06928286 -0.031633653 0.19135529 -0.12494416 0.008847627 0.020891013 -0.18427919
00000000: 0eb6 14bd f0e0 403e f116 043e 6b42 893d
00000010: 4f97 43bd 446c 2dbe 5302 e4bd 5885 a83d
00000020: ee3a fcbd bb47 253d 4307 973c b44d 7cbd
00000030: 1a84 16bd 9112 1cbe ce90 853d 50ff 62bc
00000040: 7903 0dbe 7fc0 07be 1bdc 0d3e 973b 02be
00000050: 013b cdbd e343 c8bc 025d 58bd 4817 233d
00000060: d243 9ebc ff34 643e c842 2d3c c95d a0bd
00000070: 8026 f83c 640d f0bd 0f69 25bd 80cc 3bbd
00000080: efff b73d 2b69 b4bd 39a9 0b3e 4d1b 283e
00000090: 991c 163e d45b 1f3e 964e 70bd c2ed a6bd
000000a0: f930 b2bd 505a 19be 0104 2dbe 3ef1 fe3d
000000b0: 4206 fc3d dc6a 0dbe d485 3ebe 40bb 3bbe
000000c0: 7179 233e 8f0b 0cbe 7d8d af3d c519 e43d
000000d0: 0cff afbc fd1b 1a3d 152f ac3c 5402 5a3d
000000e0: 7dc7 89be 90d9 34bd 2451 c53d ba37 5e3d
000000f0: ed9f 5fbe 8473 d3bd 39f0 50bd 90f7 70bd
00000100: c694 383e db47 d03d 5bee efbc 787f 8bbd
00000110: 99e3 073e 4cff 0cbe 6ee2 1dbe 53b9 c1bd
00000120: 3312 75bd 2237 d03d 1856 2d3e 2919 d3bc
00000130: 94aa 63bd 1fc7 a63d 4961 1abe e406 1ebd
00000140: d456 ac3d d742 06be c616 ad3d 3287 833c
00000150: c441 74bc 9ae2 80bd 17fc b3bd ea42 c43d
00000160: 008e 33bd 950b e9bd 2649 cabd e9bb 04bd
00000170: a9c0 043e f044 17be e8c1 a6bd 7442 d63d
00000180: 18ef 12bc 3f32 89bd 716b 663e fa50 acb9
00000190: 0b8f 41bd 52a4 223e 636f 773d 7780 8a3d
000001a0: acf2 de3d 71cb 043e bcc0 283b 0704 403e
000001b0: 3742 87bd ce02 b03d 3bba c2bd 150e 503d
000001c0: ec48 103e 57fc 45be d9df d73d 5459 3c3e
000001d0: 2526 42be 9b5b db3d 71b7 063e 3040 d83c
000001e0: 10ed 3bbe 2ce4 8d3d 4a92 01bd a4f2 433e
000001f0: b9e2 ffbd a3f5 103c a123 ab3c afb3 3cbe

lstm.weight_ih_l1 f4 [128, 32]
-0.2851628 -0.05270177 -0.0655654 -0.22554924 0.1516371 -0.12425239 0.058141794 0.14863843
0.034190796 -0.09811912 -0.074823126 -0.10561029 -0.19010133 -0.078108415 0.15301701 0.013564009
0.07637888 -0.06899191 0.004153114 -0.038947016 -0.1867891 -0.03050945 0.22427794 -0.014758671
-0.02340823 -0.20502783 0.2564479 -0.015618731 -0.12712312 0.28504992 -0.027169678 0.05307508
0.03137751 -0.073515154 0.13161473 -0.026601288 0.019513546 -0.0011585293 -0.05172428 0.18654609
-0.11132375 -0.07596549 -0.21480136 -0.0011155017 0.095338985 -0.15182804 -0.077742375 0.089447476
0.12751509 -0.050439823 -0.20628668 0.045691606 0.21203563 -0.075921014 0.25119105 0.22071746
-0.016569335 0.12556049 0.018955426 0.07854181 0.056734193 0.1032613 9.2503804e-05 -0.3421983
-0.0112454435 -0.15336548 -0.13246201 -0.006951931 0.17499082 0.088729054 -0.18646872 -0.045936167
0.15043283 0.11175544 0.05264457 -0.0011379217 -0.1104855 -0.11784342 0.15037267 0.088480026
-0.16413465 0.028443547 0.022633268 0.18965326 -0.020038614 0.12505032 -0.023820661 0.15747978
0.008915185 0.06223142 -0.05380846 -0.20836465 -0.07426014 0.21908651 0.1336313 -0.112698615
-0.26583743 -0.25800702 0.10568749 -0.17550194 0.0007470156 -0.1560512 0.026023315 0.23566376
0.008934051 -0.17382263 -0.13196285 0.046700947 0.037559487 0.0022796693 0.016759846 -0.036258794
0.09419023 -0.02493274 -0.025498591 0.14263448 -0.12769526 0.079661995 0.023221696 -0.008581886
-0.12348148 -0.18187226 0.21778034 -0.21086708 -0.24301626 0.1888238 0.011679725 0.08944516
-0.0964051 -0.065817505 0.2047446 0.013265753 0.0641805 0.08713193 0.060071986 -0.03232216
-0.12581865 -0.124068335 -0.111654125 0.011641752 -0.06993451 -0.009209161 -0.055200078 0.04771666
-0.16476367 0.09190338 0.21684353 0.15269281 -0.021324603 0.03365556 -0.07169806 -0.16873688
0.10439439 0.074140325 0.057546746 -0.011520206 -0.16851445 0.09383724 0.14958048 -0.09546738
-0.1329605 0.14444852 -0.16106118 0.05438382 -0.112401925 -0.058354374 -0.093716 0.11009945
-0.15252872 -0.1305432 0.0681679 -0.13182545 -0.02792719 -0.13827102 0.05527416 0.023579337
-0.011513146 0.06530204 -0.0039985 0.16478464 0.18322168 -0.04817435 0.043912604 -0.025567403
-0.06185502 -0.00088584283 -0.111919254 -0.11383121 0.049798924 0.056605503 -0.11927344 -0.20525092
0.09089339 -0.067524165 0.18423009 0.081162415 -0.09085636 -0.17004824 -0.18155432 0.02288493
-0.050916616 -0.20935236 -0.1525218 0.001633144 -0.19496524 0.05385901 -0.13148454 -0.08580807
0.19079979 -0.084716395 -0.16670112 0.24781778 0.02344829 -0.17163569 0.18385294 0.03921537
0.18883733 -0.16161163 0.05178098 0.02116513 -0.052696865 -0.013287652 0.19361994 0.05188283
-0.056005895 -0.1122977 0.23004453 -0.14460565 0.10748974 -0.009299625 0.015325473 -0.014598796
0.22143947 0.113026865 0.030742118 -0.11508007 -0.036962185 0.10307913 0.18393369 -0.2026479
0.09171639 0.09159318 0.15028137 0.11869229 0.09825481 -0.1846418 -0.10541061 0.13413322
-0.06413762 0.04304781 0.10756226 -0.09301007 -0.26140806 -0.018271638 -0.11480958 -0.05674702
00000000: dc00 92be d0dd 57bd 2747 86bd 61f6 66be
00000010: c246 1b3e 0978 febd 1726 6e3d ac34 183e
00000020: a60b 0c3d adf2 c8bd de3c 99bd 354a d8bd
00000030: eca9 42be 4ef7 9fbd 7eb0 1c3e 943b 5e3c
00000040: 886c 9c3d a14b 8dbd d816 883b e886 1fbd
00000050: a445 3fbe f4ee f9bc 1ea9 653e 5ace 71bc
00000060: 9ec2 bfbc d1f2 51be 244d 833e b5e5 7fbc
00000070: 902c 02be 10f2 913e f292 debc 4165 593d
00000080: b485 003d 1d8f 96bd 03c6 063e f2ea d9bc
00000090: dfda 9f3c cbd9 97ba d7dc 53bd f005 3f3e
000000a0: b5fd e3bd cb93 9bbd e3f4 5bbe 0736 92ba
000000b0: 1641 c33d cf78 1bbe 6537 9fbd 3d30 b73d
000000c0: 5193 023e fd99 4ebd d13c 53be 1f27 3b3d
000000d0: de1f 593e 7a7c 9bbd 1d9c 803e c203 623e
000000e0: 6abc 87bc ee92 003e 6948 9b3c 87da a03d
000000f0: 1d62 683d a97a d33d 9afe c138 9e34 afbe
00000100: cf3e 38bc d70b 1dbe 1fa4 07be 06cd e3bb
00000110: cb30 333e 94b7 b53d a8f1 3ebe 9027 3cbd
00000120: 100b 1a3e 09e0 e43d d5a1 573d 5126 95ba
00000130: 3946 e2bd e457 f1bd 4bfb 193e 0435 b53d
00000140: ea12 28be 7102 e93c 6769 b93c 7734 423e
00000150: 0528 a4bc 310d 003e 8c23 c3bc 6142 213e
00000160: ff10 123c 60e6 7e3d 4266 5cbd 8b5d 55be
00000170: b315 98bd 3758 603e a5d6 083e 88ce e6bd
00000180: d81b 88be 7f19 84be af72 d83d c8b6 33be
00000190: 5ed3 433a e3cb 1fbe d92e d53c d751 713e
000001a0: 2060 123c 8ffe 31be 4521 07be 7e49 3f3d
000001b0: fad7 193d 8166 153b f24b 893c 1a84 14bd
000001c0: cfe6 c03d bf3f ccbc 6ce2 d0bc c60e 123e
000001d0: 8cc2 02be d425 a33d 6d3b be3c 0a9b 0cbc
000001e0: dce3 fcbd b93c 3abe cf01 5f3e 8aed 57be
000001f0: 41d9 78be 075b 413e 515c 3f3c 062f b73d
00000200: 0970 c5bd 54cb 86bd 92a8 513e 9a58 593c
00000210: 1171 833d 3a72 b23d 0b0e 763d 3e64 04bd
00000220: 9bd6 00be 8a17 febd ebaa e4bd 0cbd 3e3c
00000230: d339 8fbd 05e2 16bc 7a19 62bd 8b72 433d
00000240: cfb7 28be d737 bc3d 3b0c 5e3e 815b 1c3e
00000250: efb0 aebc 6ada 093d 6fd6 92bd 5cc9 2cbe
00000260: bacc d53d e2d6 973d 23b6 6b3d 3fbf 3cbc
00000270: 0d8f 2cbe bd2d c03d a02b 193e 6784 c3bd
00000280: cc26 08be 50ea 133e 39ed 24be 92c1 5e3d
00000290: fb32 e6bd ff04 6fbd 2dee bfbd d27b e13d
000002a0: 7d30 1cbe 1ead 05be 9d9b 8b3d 40fd 06be
000002b0: 90c7 e4bc eb96 0dbe 2867 623d 7429 c13c
000002c0: a2a1 3cbc 13bd 853d d905 83bb 4ebd 283e
000002d0: 779e 3b3e 7852 45bd b4dd 333d bb72 d1bc
000002e0: b05b 7dbd e837 68ba ec35 e5bd 5620 e9bd
000002f0: f5f9 4b3d 2cdb 673d a245 f4bd 4c2d 52be
00000300: 5026 ba3d 1c4a 8abd d0a6 3c3e 7b38 a63d
00000310: e612 babd 2021 2ebe 60e9 39be 2d79 bb3c
00000320: f18d 50bd 7760 56be ad2e 1cbe 380f d63a
00000330: f8a4 47be 449b 5c3d e2a3 06be 24bc afbd
00000340: 0561 433e ca7f adbd b3b3 2abe f2c3 7d3e
00000350: a116 c03c 44c1 2fbe f243 3c3e 4ca0 203d
00000360: 935e 413e 857d 25be 4b18 543d 7f62 ad3c
00000370: abd8 57bd 74b4 59bc 4e44 463e 1783 543d
00000380: 7066 65bd 56fc e5bd cb90 6b3e 8113 14be
00000390: 9523 dc3d 745d 18bc b117 7b3c ca2f 6fbc
000003a0: 07c1 623e a17a e73d e5d6 fb3c 1aaf ebbd
000003b0: a965 17bd 271b d33d 1d59 3c3e ee82 4fbe
000003c0: cdd5 bb3d 3595 bb3d 5ce3 193e f114 f33d
000003d0: d139 c93d bd12 3dbe 85e1 d7bd 385a 093e
000003e0: 965a 83bd e752 303d 9a49 dc3d 107c bebd
000003f0: 47d7 85be 67ae 95bc 4921 ebbd 906f 68bd

lstm.weight_hh_l1 f4 [128, 32]
-0.05658947 0.099650145 -0.03715171 0.05677773 0.09267239 0.011191512 0.016314616 0.07949823
-0.068899885 -0.13985848 -0.11119596 0.21254078 -0.120995305 0.10977409 -0.037935846 0.12333194
-0.01580656 0.18739799 -0.08542204 0.09174972 0.23591395 -0.27502432 0.018275097 -0.17929468
0.012277606 -0.22039966 0.16449949 0.10947493 -0.22175376 0.004931354 0.054385427 0.17511815
0.08161679 0.21804185 0.05578941 0.13348031 -0.15727538 -0.011998213 0.04826758 0.22623369
0.25979415 0.08052007 0.07664839 -0.21073884 0.023018856 0.023537843 0.16503367 -0.09011498
0.042755716 0.27572387 0.07454354 0.12846747 -0.24563807 -0.04301775 0.18136166 -0.15728846
0.15068066 0.06392615 -0.010163928 -0.020417256 0.18099937 0.0388444 -0.20048508 0.16903591
-0.07491403 0.0864562 0.10378733 0.09944364 -0.05776328 0.1622562 0.087974966 -0.06754216
0.016481098 -0.1743712 -0.1806828 0.26206282 -0.18035378 -0.061470013 -0.076705955 -0.048762757
-0.006141151 -0.040670197 -0.1099052 0.0794445 -0.017493622 0.005848355 0.062486142 0.16729876
0.0386263 -0.09650405 0.22496828 -0.06911096 -0.15427047 0.20402431 -0.1177951 0.019872317
-0.09576301 0.10189724 0.031812117 0.16235918 0.09056398 -0.024760634 0.066850856 -0.049844492
-0.22301386 -0.17845455 0.10682842 -0.010154133 0.118153185 -0.112546116 -0.022954749 -0.08895707
-0.16787 -0.096739285 0.002710444 -0.05210857 0.06324466 -0.15261129 -0.048037555 0.12350941
0.103112765 0.13915493 0.263999 0.10818086 -0.10521896 0.08547104 -0.081072815 -0.059842076
-0.01789517 -0.166398 -0.10174275 0.06298354 -0.060262762 -0.03639357 0.047051106 0.0975495
0.031904563 0.106934234 -0.124604106 -0.044807784 0.13552386 0.08764765 -0.10576536 0.14856446
-0.012758748 0.0014843118 -0.015466861 -0.14004329 0.10281563 -0.033497553 0.015602192 -0.12441298
-0.18915594 0.04317559 0.0856616 0.112540595 0.031430986 0.09075014 -0.03661989 -0.11245622
-0.013876043 -0.028971639 0.14211458 0.027149787 0.17773071 0.18751957 -0.10279797 0.081078306
0.008712314 -0.12746267 0.16560683 0.07068965 0.0011101688 0.0131181525 -0.041621458 0.017362325
-0.13377474 0.025688795 0.10718438 -0.11545847 -0.053617496 0.0706116 -0.017982943 0.10529015
0.07624192 0.11208703 0.099241436 -0.049606454 0.091923654 0.15426214 0.1116995 -0.17220789
0.03948632 0.08765212 0.09284022 -0.0249169 0.16203609 0.13821287 0.0015646061 -0.0056302454
-0.14687563 0.124809004 -0.055335023 -0.018999701 0.06709029 -0.10939324 -0.017459802 -0.016449705
-0.08661081 -0.01008473 -0.060083345 -0.044652414 0.076201335 -0.08947639 0.10291846 0.09852142
0.14076869 0.032873657 -0.028968636 0.047541462 -0.14595585 0.03597781 -0.087505825 0.12830421
-0.118327886 -0.10743092 0.09178641 0.00078345585 0.008311325 -0.097119495 -0.046905152 -0.08311493
-0.25844213 0.07049953 0.16447146 0.3014222 -0.17371759 -0.052407138 0.07144518 0.06440366
-0.16768855 -0.07353125 -0.18429254 -0.18183191 0.044000626 -0.04860306 0.10857512 0.1240285
-0.1468788 0.09924014 0.24699482 0.20169818 -0.17187041 -0.09735125 0.1333712 0.05016506
00000000: 5cca 67bd 6015 cc3d 642c 18bd c48f 683d
00000010: 06cb bd3d 9b5c 373c 3ba6 853c f8cf a23d
00000020: 621b 8dbd 1037 0fbe b5ba e3bd 4aa4 593e
00000030: 63cc f7bd 3dd1 e03d 9e62 1bbd 7595 fc3d
00000040: c27c 81bc 42e5 3f3e c0f1 aebd 47e7 bb3d
00000050: 6d93 713e fdcf 8cbe a8b5 953c 0699 37be
00000060: 0328 493c 73b0 61be 8e72 283e 6434 e03d
00000070: 6b13 63be 3297 a13b 41c3 5e3d 2c52 333e
00000080: b426 a73d 5d46 5f3e 7083 643d 10af 083e
00000090: cc0c 21be 2794 44bc 3ab4 453d cea9 673e
000000a0: bd03 853e b5e7 a43d d5f9 9c3d eccb 57be
000000b0: 0a92 bc3c 6fd2 c03c 96fe 283e 348e b8bd
000000c0: 9e20 2f3d ae2b 8d3e 49aa 983d fa8c 033e
000000d0: 8c88 7bbe 6133 30bd dfb6 393e 3a10 21be
000000e0: 084c 1a3e b7eb 823d 9b86 26bc 1742 a7bc
000000f0: e657 393e 4e1b 1f3d f64b 4dbe c017 2d3e
00000100: 876c 99bd f30f b13d 748e d43d 1ba9 cb3d
00000110: 3099 6cbd 7d26 263e 382c b43d 8b53 8abd
00000120: 5e03 873c 5d8e 32be e904 39be 192d 863e
00000130: a9ae 38be fbc7 7bbd 0318 9dbd 75bb 47bd
00000140: b53b c9bb cb95 26bd fa15 e1bd ccb3 a23d
00000150: c94e 8fbc 8fa3 bf3b 78f1 7f3d 5e50 2b3e
00000160: 9c36 1e3d eaa3 c5bd 165e 663e 0c8a 8dbd
00000170: 14f9 1dbe c0eb 503e 8f3e f1bd 45cb a23c
00000180: 661f c4bd 80af d03d 6c4d 023d 7c41 263e
00000190: 9c79 b93d d0d6 cabc 1ae9 883d bd29 4cbd
000001a0: bf5d 64be cabc 36be dcc8 da3d 855d 26bc
000001b0: 4cfa f13d 947e e6bd 990b bcbc 202f b6bd
000001c0: 1de6 2bbe 3f1f c6bd b4a1 313b cc6f 55bd
000001d0: 6b86 813d 2246 1cbe 07c3 44bd 80f2 fc3d
000001e0: c92c d33d a17e 0e3e e02a 873e ed8d dd3d
000001f0: 0a7d d7bd 710b af3d 8109 a6bd f71c 75bd
00000200: e498 92bc 3d64 2abe 815e d0bd 84fd 803d
00000210: 16d6 76bd 6d11 15bd a9b8 403d 08c8 c73d
00000220: 5cae 023d 5600 db3d 7030 ffbd 5e88 37bd
00000230: c4c6 0a3e 9c80 b33d 829b d8bd 4821 183e
00000240: 110a 51bc 3d8d c23a b868 7dbc 8267 0fbe
00000250: 0091 d23d bb34 09bd 56a0 7f3c 3ccc febd
00000260: 18b2 41be e3d8 303d 596f af3d af7b e63d
00000270: c7bd 003d 36db b93d bdfe 15bd 724f e6bd
00000280: 5858 63bc ee55 edbc 7c86 113e 3b69 de3c
00000290: 0aff 353e 2105 403e be87 d2bd 620c a63d
000002a0: 18be 0e3c 9385 02be d694 293e bcc5 903d
000002b0: 1583 913a 85ed 563c 437b 2abd 6f3b 8e3c
000002c0: 3ffc 08be 4f71 d23c 7c83 db3d 7e75 ecbd
000002d0: 059e 5bbd d19c 903d f750 93bc 5da2 d73d
000002e0: b924 9c3d e38d e53d 183f cb3d 2330 4bbd
000002f0: 7842 bc3d e5f6 1d3e b5c2 e43d 4457 30be
00000300: 68bc 213d f482 b33d 0323 be3d 871e ccbc
00000310: caec 253e ad87 0d3e 7813 cd3a ec7d b8bb
00000320: 9166 16be dd9b ff3d faa6 62bd 43a5 9bbc
00000330: a266 893d 9009 e0bd dc07 8fbc 88c1 86bc
00000340: 0261 b1bd 6c3a 25bc f419 76bd 73e5 36bd
00000350: 720f 9c3d 663f b7bd eac6 d23d 99c5 c93d
00000360: ab25 103e 87a6 063d a24f edbc d6ba 423d
00000370: 7375 15be 785d 133d 4136 b3bd 2e62 033e
00000380: e455 f2bd be04 dcbd 83fa bb3d d560 4d3a
00000390: 392c 083c 96e6 c6bd 9e1f 40bd 2938 aabd
000003a0: 8752 84be 0f62 903d 356b 283e 0354 9a3e
000003b0: 06e3 31be dea8 56bd da51 923d 11e6 833d
000003c0: 8cb6 2bbe 8d97 96bd 2fb7 3cbe 2532 3abe
000003d0: 003a 343d 0114 47bd a25c de3d a702 fe3d
000003e0: 6567 16be 6a3e cb3d 36ec 7c3e f889 4e3e
000003f0: ccfe 2fbe 1860 c7bd 7692 083e e179 4d3d

lstm.bias_ih_l1 f4 [128]
0.1493865 -0.18591493 -0.0031616488 -0.07929139 0.17311543 0.05509472 0.023402466 -0.1108277
0.07718739 0.14450647 0.10281796 0.22530942 0.087903395 -0.14675649 0.14656097 -0.14381215
-0.17426428 0.024730062 0.13793619 0.089262046 -0.01851135 0.11365165 0.0581931 -0.03724221
-0.0743616 0.17467684 0.12371696 0.21304804 -0.06143387 0.020334994 0.1750913 0.32806066
-0.068180315 -0.036638252 0.07449354 -0.026093502 -0.111563504 -0.079496525 0.0077605294 0.06911662
-0.08938518 0.05667822 -0.06193834 0.021535382 -0.039335124 -0.18528767 0.0762147 0.0066212383
-0.012313887 -0.03027677 0.15802442 0.121662065 0.071640596 -0.11363504 0.016971305 -0.025976675
0.036065113 -0.13179095 0.04108671 0.080511294 -0.054606024 -0.085430324 0.06818878 -0.15912744
-0.13434257 0.0039019913 -0.093590744 0.032962713 -0.1504543 -0.04466645 0.17426158 -0.16688158
-0.14806901 -0.0030474782 -0.0978148 0.1301112 -0.08000446 0.051977172 -0.14820156 0.010819732
-0.02492 -0.049894292 0.044802874 -0.10510786 -0.008568481 0.024164034 -0.011960453 -0.10937215
0.07685407 0.13024619 0.044667147 -0.08595697 0.014044928 0.028254967 0.052323483 -0.0120335175
0.10312628 -0.103359275 0.15265086 0.008284343 -0.03773669 -0.22672895 0.11846807 -0.029036533
0.049254082 0.26932323 -0.12228961 0.014535533 -0.023865305 -0.11490712 0.10986229 -0.01588832
0.014459079 0.06271487 0.23381644 -0.048463833 0.19170581 0.0779559 -0.051612075 0.2594606
0.091373466 -0.04421143 -0.11456213 0.17667729 -0.18242559 -0.20605807 0.14152564 0.22672476
00000000: c6f8 183e 7c60 3ebe aa33 4fbb 8663 a2bd
00000010: 2c45 313e 00ab 613d 87b6 bf3c a2f9 e2bd
00000020: 6c14 9e3d 81f9 133e 3992 d23d 83b7 663e
00000030: b206 b43d 5547 16be 1414 163e 7e43 13be
00000040: 5672 32be b396 ca3c 253f 0d3e 05cf b63d
00000050: 1da5 97bc 32c2 e83d e35b 6e3d 4a8b 18bd
00000060: e54a 98bd 7cde 323e 515f fd3d 4429 5a3e
00000070: 15a2 7bbd 9395 a63c 224b 333e 91f7 a73e
00000080: 1fa2 8bbd fe11 16bd 1290 983d 0ac2 d5bc
00000090: 687b e4bd 13cf a2bd 0a4c fe3b 048d 8d3d
000000a0: 940f b7bd 6c27 683d 0fb3 7dbd f86a b03c
000000b0: de1d 21bd 0dbc 3dbe 7416 9c3d f9f6 d83b
000000c0: 2fc0 49bc fd06 f8bc 27d1 213e f629 f93d
000000d0: 4eb8 923d 7db9 e8bd 6807 8b3c 09cd d4bc
000000e0: 03b9 133d 35f4 06be 8a4a 283d 1be3 a43d
000000f0: 91aa 5fbd 18f6 aebd 8fa6 8b3d 4ef2 22be
00000100: 1991 09be 8db8 7f3b 81ac bfbd e903 073d
00000110: b110 1abe 2bf4 36bd a171 323e 01e3 2abe
00000120: 679f 17be 33b8 47bb 2053 c8bd df3b 053e
00000130: 61d9 a3bd 04e6 543d 26c2 17be 3f45 313c
00000140: 0725 ccbc f55d 4cbd 3883 373d ca42 d7bd
00000150: d062 0cbc a7f3 c53c c7f5 43bc 81fe dfbd
00000160: ab65 9d3d 425f 053e e6f4 363d 350a b0bd
00000170: b31c 663c f676 e73c 2651 563d 3b28 45bc
00000180: df33 d33d 07ae d3bd 8250 1c3e 0ebb 073c
00000190: ca91 1abd a22b 68be 639f f23d 06de edbc
000001a0: a6be 493d bce4 893e fa72 fabd 7226 6e3c
000001b0: 2c81 c3bc 6d54 ebbd 7bff e03d 3928 82bc
000001c0: c6e5 6c3c a770 803d 946d 6f3e 0382 46bd
000001d0: 874e 443e 58a7 9f3d 2f67 53bd 05d8 843e
000001e0: 0322 bb3d 0b17 35bd 8d9f eabd e4ea 343e
000001f0: c6cd 3abe e300 53be 19ec 103e 892a 683e

lstm.bias_hh_l1 f4 [128]
0.14694548 -0.28747314 0.14674203 -0.13754831 -0.028347185 -0.06451385 -0.03378725 -0.069206856
-0.0028315687 0.10191707 0.11592568 0.077625595 0.0020891838 -0.18165956 0.076143496 0.108065076
0.15316117 -0.07746096 -0.04098522 -0.035387386 0.088192 0.061920516 0.04717886 -0.026696004
0.010922562 -0.021337165 0.01699276 0.2343467 -0.041411225 -0.081645004 0.23523676 0.2997656
-0.09213224 -0.019093085 -0.07129045 -0.112912275 -0.00416351 0.03596376 -0.10236102 0.0039791223
0.0016125063 0.064617895 0.10767654 0.084203884 -0.046800125 -0.0479623 -0.05851017 -0.026560908
-0.18498576 0.0021273652 0.004441993 0.15245096 0.02583115 -0.061995674 0.09402416 0.13453306
0.11189684 0.077010624 0.028530112 -0.12579477 -0.24711482 -0.022363322 0.02288824 -0.030126346
-0.09946088 -0.028215932 0.07980413 -0.17397377 0.05738811 -0.0098999655 -0.10438638 -0.086502075
-0.018333582 -0.08601275 0.16169697 0.09009223 0.15545921 0.054306433 -0.062100552 0.114190936
-0.039448686 -0.09312765 -0.10774841 0.14680575 0.10928426 0.23130275 0.16341984 -0.010900064
-0.1465078 -0.100324996 0.12319548 -0.007813355 -0.029641738 -0.08399723 0.06407688 0.09731095
-0.12552305 -0.1377761 0.036534384 0.039910298 0.17433397 -0.08012283 -0.009057988 -0.0010544152
0.10577556 0.26579624 0.17003745 0.15083477 0.2095196 0.12827256 0.20446114 0.11572017
0.06776146 0.14355873 0.1996522 -0.10144457 -0.0068088295 -0.028068919 0.0647663 -0.07509677
0.13502002 -0.026768379 0.1924471 0.23575673 -0.18103705 -0.11080767 0.057198554 0.034463547
00000000: e078 163e ae2f 93be 8b43 163e 77d9 0cbe
00000010: 5b38 e8bc d61f 84bd 8064 0abd 53bc 8dbd
00000020: d791 39bb e6b9 d03d 716a ed3d 2bfa 9e3d
00000030: b0ea 083b f704 3abe 1ff1 9b3d 3951 dd3d
00000040: 48d6 1c3e daa3 9ebd 1ee0 27bd 5df2 10bd
00000050: 029e b43d 5ea0 7d3d 9f3e 413d 94b1 dabc
00000060: 8cf4 323c 47cb aebc 6734 8b3c 95f8 6f3e
00000070: d19e 29bd 7f35 a7bd e8e1 703e e07a 993e
00000080: d4af bcbd 1a69 9cbc ba00 92bd 8d3e e7bd
00000090: 0e6e 88bb bc4e 133d a8a2 d1bd 4c63 823b
000000a0: bc5a d33a 6356 843d 8585 dc3d 1673 ac3d
000000b0: 7db1 3fbd 1e74 44bd 5ca8 6fbd 4396 d9bc
000000c0: e86c 3dbe 446b 0b3b 238e 913b 1b1c 1c3e
000000d0: d99b d33c 2def 7dbd bd8f c03d 09c3 093e
000000e0: 2c2a e53d bfb7 9d3d fbb7 e93c 58d0 00be
000000f0: ab0b 7dbe 4933 b7bc 1e80 bb3c 87cb f6bc
00000100: 25b2 cbbd 1925 e7bc 5970 a33d 2e26 32be
00000110: cb0f 6b3d 7733 22bc 87c8 d5bd 0028 b1bd
00000120: 4f30 96bc 7427 b0bd e493 253e 4682 b83d
00000130: b330 1f3e 6c70 5e3d 265d 7ebd f0dc e93d
00000140: f294 21bd b6b9 bebd 33ab dcbd 3f54 163e
00000150: 6dd0 df3d a1da 6c3e 8857 273e 2f96 32bc
00000160: 2406 16be 3177 cdbd e94d fc3d 9603 00bc
00000170: 3bd3 f2bc bd06 acbd bd3a 833d f74a c73d
00000180: 1d89 00be 2e15 0dbe 14a5 153d fb78 233d
00000190: 9b84 323e 7017 a4bd f567 14bc 4e34 8aba
000001a0: dba0 d83d 7216 883e 4c1e 2e3e 6e74 1a3e
000001b0: 4e8c 563e e259 033e 435e 513e b2fe ec3d
000001c0: 85c6 8a3d 0f01 133e a071 4c3e 2cc2 cfbd
000001d0: 9a1c dfbb caf0 e5bc 32a4 843d 56cc 99bd
000001e0: b042 0a3e 5c49 dbbc da10 453e 366a 713e
000001f0: c761 39be 22ef e2bd 0849 6a3d a629 0d3d

fc.weight f4 [1, 32]
0.06267646 -0.02062201 0.15348135 0.22102639 0.25547758 0.09650176 0.12701872 0.15756193
-0.20714456 -0.2485922 0.13665543 0.20416296 -0.2024226 0.10550474 0.20092979 -0.16200373
0.1023199 -0.17171878 -0.26167738 -0.19984098 0.21956757 -0.16654883 -0.2673727 0.29478407
-0.18883103 0.16910931 0.22256 0.31159914 -0.13644546 0.0004899819 -0.22618796 -0.32073984
00000000: 845c 803d 7def a8bc 372a 1d3e be54 623e
00000010: f5cd 823e b7a2 c53d 3211 023e ea57 213e
00000020: b41d 54be f48e 7ebe 67ef 0b3e 1810 513e
00000030: df47 4fbe de12 d83d 8ac0 4d3e 4ee4 25be
00000040: 198d d13d 0cd7 2fbe 94fa 85be 1da3 4cbe
00000050: 52d6 603e c78b 2abe 13e5 88be f0ed 963e
00000060: ec5c 41be fe2a 2d3e c5e6 633e ec89 9f3e
00000070: 5cb8 0bbe 2172 003a d19d 67be 0338 a4be
