TradingAlgorithm/model_pro.pth (torch, 842851 bytes, 11 tensors)

lstm.weight_ih_l0 f4 [512, 5]
00000000: c245 5d3d 41b3 01bd e93e 863d a98e 083c
00000010: e8f1 8fbd a06e ac3d 969f 02bd 22dc 11bd
00000020: dbf2 e8bd 8212 863d 17af 61bc 461c c23d
00000030: 98a3 8f3c 9200 c0bc e681 65bd 75d3 193c
00000040: c442 6abc dc8b 2fbc f857 ddbd 34da a63c
00000050: 22fa fbb9 d497 0f3d 6df9 cf3d f2ea 333d
00000060: fdf4 913d 9f92 32bd 255d 2dbd 65a3 86bd
00000070: 7a66 68bd 66ec 99bd 21f6 fdbd dbf5 2f3c
00000080: 630d 003d 3892 933d 7ebc e93b 5dbc 8dbd
00000090: 2cde 18bd 5694 1cbe 5177 533c a0ad 993d
000000a0: a990 92bc 90ed 883d d6db e93c 316b ca3d
000000b0: 6ce3 903d 7a28 59bd 9125 40bd 3b46 653d
000000c0: b3e8 a5bd 7b48 1abd a6b7 f13d d4ce 5b3c
000000d0: ce20 c8bc 62d5 3dbc 6fb4 2f3d 23b4 a1bd
000000e0: 54d3 db3c 89de a2bc 7af5 9c3d b73a 5ebd
000000f0: f320 123e 9524 c03b d276 623d 6bda 50bd
00000100: 6fda edbd 5124 2b3d a42d b13d c915 cebc
00000110: 20bb 303c dc7b b43c ebec e63c a4b2 1a3c
00000120: ec73 85bd 7e45 76bd 113b f03c e0ff 063c
00000130: 5019 093e aa81 0c3e 8174 f63a d51c abbd
00000140: 8422 d5bd 453c c7bd 0726 1fbe a413 03be
00000150: 5770 5e3c 25b7 eb3d 4a1f da3d c991 3ebd
00000160: 5999 01be 3759 413d 1c63 ac3d 6e47 543d
00000170: 98b4 bc3c aa3d 4a3c b01e 0bbd cc3b 98bc
00000180: 85a6 8a3d ab0e c83b 5937 70bd 0a21 843d
00000190: ed96 54bd 453c edbc d7c1 38bd c1a9 9bbd
000001a0: d05e ca3c 9b08 063e 77b8 83bd 1315 8abd
000001b0: f046 2b3d 35f1 7ebd 6e01 49bd 9c85 2b3d
000001c0: a86b f83d 8f0c efbd 52e4 e73c e614 d7bd
000001d0: 1b1b 58bd a571 bcbd 4175 13bd bb45 2fbd
000001e0: 491b b03d 1c6c 6a3d ff53 423b a17b e73d
000001f0: f7a5 d0bc 2fa0 6c3c 6d9b 4f3d 33b5 663d
00000200: edbc ebbd 59cf 8c3d d25e e93b 5632 123d
00000210: 8884 243d 1ddc 983c b16f 01be cf63 c53d
00000220: 205b ed3d 3aa9 a73c cce1 213d 0640 dbbc
00000230: 3410 0a3e d047 643d dec4 d53c 95cb 3ebc
00000240: e1fd 403c 0158 f0bd ac2a bdbd 57cd 49bd
00000250: 5be7 82bc 2b7a c4bc 0eba 1b3d 07cb 57bd
00000260: a6b2 76bd df21 c53d 9b33 683d 6971 11bb
00000270: ac4c 9dbc 525e 1a3d 31a4 c5bd 5b99 d7bd
00000280: 50af cd3d 76a6 23bc 92c0 9abd 46bd b43c
00000290: a958 6dbd ba0d dbbd bf44 353d 4dba e83c
000002a0: 663a a43c 6e14 23bd 398a d43d 07a1 f93d
000002b0: 7a82 1f3d b79b b2ba 32c8 d1bc f8de b4bc
000002c0: 6575 14be ec7d 1cbc 016a f33c 01fa 90bc
000002d0: 17b7 a0bc 32ba 963d b3fa febc 29cc 313d
000002e0: fd66 4d3d e63c f33d 65e4 9fbd b515 bdbc
000002f0: 201b 5bbd bec3 b93c 3696 d03c a460 8bbd
00000300: 0a65 e93c 6ce5 1fbc 8f1a ca3c a0e6 9b3c
00000310: dc6e bebd 7312 1d3d 869e 78bd f54a ad3d
00000320: 3f49 07bd ac4f c23d b730 4f3d d7cb 71bc
00000330: 60bc 1bbc c1ca 733d 326f 9bbd a3e0 78bd
00000340: 8dbd 5d3d 32bf 41bd e20c 66bd 4521 5f3c
00000350: ce85 91bd 893f 823d 74c9 05bd 496b ccbc
00000360: 3e33 453d cff0 4f3d 2ce3 dbbd 980d 2bbd
00000370: 0400 ecbc 1295 a13d 9afb 88bd 7128 b7bd
00000380: 72ea f3bc 737f 73bd f921 bebd dda8 82bc
00000390: 418d a13d 1bfd 89bd 4a55 1e3d 4abd 4f3b
000003a0: 18c2 0cbe c038 8dbd cb6e d13d 3718 10bd
000003b0: b4d9 afbd 9e1f d93d b7bf b03c d279 1c3d
000003c0: 82d1 363e 171f 093e 62df 9e3d 68f3 6f3c
000003d0: dbf8 703c e36d 453c 31f9 863d 98bb 793d
000003e0: 2524 67bc 4e1a bdbd 27ab fa3c 4845 65bc
000003f0: 56ab 00bd 7f9d e8bd 97d3 5ebc 2215 0a3e
0.054021604 -0.03166509 0.06554968 0.008334794 -0.07028562 0.084195375 -0.031890474 -0.035610326
-0.11374446 0.06546499 -0.013774655 0.09478049 0.017534062 -0.023437772 -0.056032084 0.009388794
-0.014298145 -0.010714497 -0.10807794 0.02036772 -0.00048060814 0.035056904 0.10154996 0.043925233
0.07126806 -0.04359686 -0.042325158 -0.06574134 -0.056738354 -0.075157925 -0.12400461 0.010739769
0.031262767 0.072056234 0.0071330657 -0.06920693 -0.037321255 -0.1529096 0.012906865 0.075038195
-0.017891245 0.066859365 0.028547209 0.098837264 0.07074627 -0.053017117 -0.046910826 0.05597518
-0.081010245 -0.03766678 0.11802606 0.013416011 -0.024429705 -0.011586519 0.042896684 -0.078956865
0.026834168 -0.019881504 0.076640084 -0.054255214 0.14270382 0.005863736 0.055289097 -0.05098955
-0.116139285 0.04178268 0.086512834 -0.025156872 0.010786802 0.022031717 0.028189143 0.009442005
-0.06516251 -0.060124867 0.02932504 0.008239716 0.13388562 0.13721338 0.0018803031 -0.08355109
-0.10406974 -0.097282924 -0.1554185 -0.12800461 0.013576589 0.115095414 0.10650499 -0.04652575
-0.12656154 0.047204223 0.08417341 0.051825933 0.023035333 0.012343803 -0.033964813 -0.0185832
0.06770042 0.006105264 -0.058646534 0.06451614 -0.051901747 -0.028959403 -0.045106735 -0.07600737
0.024703413 0.1308922 -0.06431668 -0.06742301 0.0418157 -0.06224175 -0.04907363 0.041875467
0.12129909 -0.11672317 0.028307114 -0.10502033 -0.052760225 -0.092013635 -0.036000494 -0.04279111
0.08598954 0.057232007 0.0029652116 0.11302877 -0.025469763 0.014442488 0.050685335 0.05632515
-0.11510644 0.06875486 0.007121899 0.035692535 0.040165454 0.018659646 -0.12640263 0.096381776
0.11589646 0.020466436 0.039521977 -0.026763927 0.13482744 0.05573255 0.02609485 -0.011645217
0.011779279 -0.117355354 -0.09236655 -0.049268093 -0.01597946 -0.023984035 0.038019232 -0.052683856
-0.060228966 0.09625601 0.05668984 -0.0022192842 -0.019201599 0.037687607 -0.09650458 -0.10527297
0.10043204 -0.009988418 -0.07556261 0.022062909 -0.05794588 -0.106959775 0.044255015 0.028409148
0.020047378 -0.039814405 0.103779264 0.12188917 0.03894279 -0.0013626729 -0.025608156 -0.022078976
-0.14497907 -0.0095515065 0.029713633 -0.017697336 -0.019618554 0.07359733 -0.031125402 0.043407593
0.050147045 0.1187685 -0.07807235 -0.02308164 -0.053492665 0.022676345 0.025462251 -0.06805542
0.028490562 -0.009759288 0.024670867 0.019030869 -0.092984885 0.038347673 -0.060698055 0.084615625
-0.033028837 0.094878525 0.050583567 -0.014758072 -0.009505361 0.059519533 -0.07589568 -0.060761105
0.054135848 -0.04730148 -0.05616463 0.013618772 -0.07105599 0.063597746 -0.032662824 -0.024953501
0.04814457 0.050766762 -0.10736689 -0.04176101 -0.028808601 0.07889761 -0.06688614 -0.089432605
-0.029774878 -0.059447717 -0.092838235 -0.01594966 0.0788827 -0.06737729 0.038655557 0.0031698518
-0.13745916 -0.0689559 0.1022621 -0.035179343 -0.085864455 0.106017336 0.021575792 0.038202114
0.17853358 0.13390766 0.07757451 0.014645435 0.014707769 0.012050125 0.06590498 0.06096992
-0.014107739 -0.09233533 0.03059919 -0.013993569 -0.0314134 -0.11358165 -0.013600252 0.13484624

lstm.weight_hh_l0 f4 [512, 128]
00000000: edc3 5d37 d0db 7e3a c2bd 01bd f554 a83d
00000010: 82b0 b43d 2bdc 1d3c e3c9 a03d eb12 3dbd
00000020: 1eca 0d3d 1b4d ab3d 9728 67bc 6ee1 b63c
00000030: 1792 1b3d 1826 153d 53f2 40bc dde0 48bd
00000040: 440f 9f3b 38af febc 94d0 e2bc 82bc 58bb
00000050: e8ce a93d 9899 713d b30d 9d3c 9fae 8a3d
00000060: a9f4 80bd ea60 9fbc 689b b7bc 8d0c 053d
00000070: 87ed 743d d1ab c3bc 095d 95bd ffbe 2f3d
00000080: 0718 5f3d d379 a3bd 74e5 923d b464 26bd
00000090: 3276 6bbd fe98 7bbd 3d65 84bd e6d2 77bd
000000a0: bc67 77bd 527e ac3d e645 1bbd 6038 bcbc
000000b0: 848b 533d 2777 82bd ca59 66bd d3c7 f9bc
000000c0: e747 3dbd 8f52 123c c5cb 8ebd eecf 55bd
000000d0: 57c2 97bd 75fd 04bd d6fd 97bd 55bf 27bc
000000e0: 7105 65bc d8fb 97bd 357f b73c e36b 06bd
000000f0: 4751 9cbc cfc4 05bd 1ad5 553d 45bf 76bd
00000100: 683e ab3d 4d10 163c cbf8 83bd 4162 e43d
00000110: d2cf 8d3c 6660 c53d d8bc 35bd 77dd bf3d
00000120: 1efe 77bd 08d7 e0bc a822 db3c 6bd7 0cbd
00000130: a116 27bd 1057 79bd 2cca cebb 309a 88bd
00000140: 9f5e f93c 6895 5abd 1397 603d 9868 813d
00000150: e4f1 afbc 69d8 b43d 027e a43d 3437 673d
00000160: 6402 c83d 783a 9ebc adb3 6fbd fa57 253d
00000170: e594 423b b067 03bd 7245 c0bd 56c9 513d
00000180: 209d 433d 191a 723d e42d 93bd 5c11 a4bd
00000190: 5f15 8cbd 39e7 a0bb b23d 01bd 9b27 b43d
000001a0: 6e31 db3c b785 0bbd 1916 81bd 3ff0 8cbd
000001b0: ff4d d3bd ac59 07bd b34d 09bd 43ff a03d
000001c0: 391d 35bd 5401 a83c 808b acbd 2794 3ebd
000001d0: 3c44 29bd 8636 6a3d a216 99bd 0623 843c
000001e0: e33e c63d 7b43 3dbd d354 3f3c 8d47 1abc
000001f0: a37f 53bd 3e98 15bd 3edf 933c e7e3 07bd
00000200: d507 5c3d 9a14 7a3d 5858 a43d 8231 733c
00000210: 82f4 d1bc 7274 aebc 745f 3abc 64c3 c2bd
00000220: 6bab e4bd fb8a d33d 1099 b3bd 7b7c bdbd
00000230: 8e22 92bc 2d9c a23d f91f 963d ee93 6d3b
00000240: 1a7e 32bd c31b 0dbd 31aa 85bd 0133 a13d
00000250: 5185 20bd 4bf5 99bc 2e54 25bd dca4 85bc
00000260: 8f35 b23d 4c00 a9bd f1bd 9ebd 41b1 ccbd
00000270: 1ea7 c7bd 40af 8c3c e829 35bd 9bb1 7abd
00000280: fd4f c23c 34a6 35bd 3d16 90bd 33b3 9b3d
00000290: d114 823d 9e8f 0ebd f420 153d 3e97 dd3a
000002a0: 648c a439 e4f2 d23c 4e8b 89bc bd56 4c3c
000002b0: a3f9 28bd 94a3 78bd a34e 42bd fb63 84bd
000002c0: bb6a 303d 1a08 4dbd 6ebe a63d 96e2 c13d
000002d0: c795 253d 08ab 21bd 17dd 20bd f3cc 4fbc
000002e0: 9ac1 dabb 2c7f 673c abfa 783c 746f a83d
000002f0: 4c69 cbbd 4343 d03d cb6b c7bb 95f0 45bd
00000300: 3323 21bd e0a4 9ebd 0c8e a13d 384b 983d
00000310: c3d9 07bc 7620 993d b3b8 8dbd b5f4 a03d
00000320: 1739 06bc cc09 67bc 7957 213c 0ac1 9fbd
00000330: 5907 cabd fa46 a4bd f224 6ebd 36da 22bc
00000340: 632a bb3c 9532 d23d 3c49 943b 2712 66bd
00000350: 9362 90bd df03 42bd 5e47 5b3d 658f 9f3d
00000360: 2166 8e3d 4f15 a93d ccfa 18bd 7fc1 2bbd
00000370: 927c 813c 2a1d b13d 0cc9 2e3d 99d1 de3c
00000380: 18f5 28bc 9d7f 96bc 2684 a43d 651f d4bd
00000390: f326 a4bd 50f1 923c b44a 883d dabb 0b3d
000003a0: 6def 8e3d 58d6 443b 30ea 013c 0563 c9bd
000003b0: d568 e6bc 6cb5 13bd ba63 75bd a0ac eebc
000003c0: b44d 3bbc 29ca 403d d2a5 acbd dced 90ba
000003d0: 6f23 c1bb 6836 0b3d 7a53 643c 4aae ac3d
000003e0: fb72 7ebd 5ba5 cb3c 8a95 03bd 67a3 5ebd
000003f0: 02e4 923d 85e9 7ebd 0a3c 993d 7a04 143d
1.3218244e-05 0.00097220857 -0.031675108 0.08219329 0.08822729 0.009635012 0.07851007 -0.04616062
0.034616582 0.08364316 -0.0141087985 0.02232429 0.03798112 0.036413282 -0.011776525 -0.04904257
0.0048541147 -0.03108941 -0.027687348 -0.0033071344 0.08291417 0.05898437 0.019171571 0.067715876
-0.06296665 -0.019455392 -0.02241297 0.032482672 0.059796836 -0.02388564 -0.07293136 0.042906757
0.054466274 -0.079822205 0.07172671 -0.04062338 -0.057485767 -0.0614252 -0.06464622 -0.060503863
-0.060401663 0.08422531 -0.037908457 -0.0229761 0.051646724 -0.06370383 -0.056237973 -0.030490791
-0.04621115 0.008930816 -0.0697246 -0.05220025 -0.07410114 -0.032468278 -0.07421462 -0.010238488
-0.013978348 -0.07421082 0.022399524 -0.032817733 -0.019081725 -0.032658394 0.052205183 -0.060241003
0.083615124 0.00915916 -0.06443938 0.11151553 0.01731101 0.09637527 -0.04436955 0.09368413
-0.06054508 -0.027446285 0.026749924 -0.034385126 -0.040793065 -0.060874045 -0.006310722 -0.06670034
0.030440627 -0.05336514 0.054831576 0.06318778 -0.021477647 0.088303395 0.080318466 0.05644913
0.09766081 -0.01931499 -0.05852096 0.040367104 0.00296908 -0.032081306 -0.09388246 0.0512174
0.047757268 0.05910692 -0.07186487 -0.080111235 -0.06840014 -0.0049103764 -0.031552978 0.08796617
0.026756968 -0.034063067 -0.06303043 -0.06881761 -0.10317611 -0.033044502 -0.033521365 0.07861187
-0.044217322 0.020508446 -0.08425045 -0.046528008 -0.04132484 0.057180904 -0.0747502 0.016129982
0.096799634 -0.046206933 0.0116779385 -0.009416473 -0.051635396 -0.036522143 0.018050786 -0.03317633
0.053718407 0.061054803 0.08024663 0.014843347 -0.025629286 -0.02129576 -0.011375297 -0.09509924
-0.11165508 0.10329243 -0.08769429 -0.092522584 -0.017838743 0.079399444 0.07330317 0.0036251503
-0.04357729 -0.034450304 -0.06526602 0.07871056 -0.03918964 -0.018793723 -0.040363483 -0.016313963
0.08701622 -0.0825201 -0.07751072 -0.09994746 -0.09748672 0.01717341 -0.044229418 -0.061204534
0.023719782 -0.044347957 -0.070354916 0.07602539 0.06351627 -0.034804933 0.03640838 0.0016906036
0.00031385117 0.025750585 -0.016790058 0.012471852 -0.041253697 -0.060702875 -0.047438275 -0.06464382
0.043070536 -0.050056554 0.0814179 0.09467046 0.040426042 -0.03946975 -0.039273348 -0.012683141
-0.006675911 0.014129441 0.015196483 0.08224383 -0.09932193 0.10169079 -0.006085848 -0.04832514
-0.03934021 -0.07746291 0.078884214 0.07436222 -0.0082916645 0.074768946 -0.06919994 0.07859174
-0.008192322 -0.014101457 0.009847515 -0.07800491 -0.09864683 -0.0802135 -0.058140703 -0.009939721
0.02284736 0.10263554 0.004525332 -0.056169655 -0.070500515 -0.047366973 0.053534858 0.07791022
0.06953073 0.082560174 -0.037348554 -0.04193258 0.01580647 0.08648141 0.042672202 0.027199553
-0.010312341 -0.018371398 0.08033018 -0.103575505 -0.080152415 0.017937332 0.066548735 0.034114696
0.069792606 0.0030034985 0.00792937 -0.098333396 -0.02812616 -0.03606169 -0.05990956 -0.029135048
-0.0114321 0.047067795 -0.08430065 -0.0011057216 -0.0058941166 0.033987433 0.013935918 0.084316805
-0.062121373 0.024859121 -0.032125033 -0.05435505 0.07172395 -0.06223442 0.07482155 0.03613708

lstm.bias_ih_l0 f4 [512]
00000000: f773 903d 2f1d b13d 7b9c 3abd a137 96bc
00000010: 6ec0 3ebd b6d9 cb3d 96bc 003e 90ee ad3d
00000020: 2313 03bd 77aa 1d3d 65f0 203d 2e58 7dbd
00000030: 3409 9c3d 12e9 2d3d 3820 573d fb07 b73d
00000040: 2f5c ac3d 2713 543d 034c 05bd 7ac2 f53c
00000050: cc4f a23c 9b50 2ebd 7150 ab3d 04e9 b83d
00000060: c16c ab3d fe39 0bbd 751e 593d 36d9 3c3d
00000070: 6253 32bd f7ec 813d a325 7cbc b997 ca3d
00000080: c607 4fbd d5fd 8fbc 9807 003e c74b 153e
00000090: ed38 4c3d 0a23 e0b9 413c 103d 4da8 813d
000000a0: 3421 cdbc 80cc 63bc 2c92 cb3c ded5 633d
000000b0: ff09 863b fe4b 403c fd8c e33d caf5 143d
000000c0: a57f b33d 435e e339 5178 db3d c746 27bd
000000d0: e483 bcbd 519d 7b3d 265e f63c aaa0 a5bc
000000e0: 66fe 253c cc56 8bba b4eb 59bc 6ce2 b5bd
000000f0: f465 4c3d 8b7e c73c 710b 953c fac8 823d
00000100: 097f 833c c1ba 50bd 2465 0d3d f4ff 3e3d
00000110: 60a1 833d e4d6 ae3d 97e2 d13d 829b ff3d
00000120: 9e27 473c e650 823c 8d1c 21bc 86ae 053a
00000130: 545d 0e3e 7e5d 983d 2f13 f23d 92fa 043e
00000140: 8a57 0c3d 7636 f0bc 1000 dd3d 7d96 253b
00000150: 5e25 e63c 35ac 29bd c7bd e3ba c4b0 863d
00000160: 36f3 63bc 86fd 893d 147e f3bc 4ea0 6bbd
00000170: a6a2 bcbc af9b a9bd 1ffd 27bd f31d 5d3d
00000180: 5cd3 993c 27f0 91bc e07e 6c3d 78ad 913d
00000190: a82c f4bc bb50 063e 6b6d 8e3d f705 5bbc
000001a0: c1f7 b1bc 9147 2a3d e165 f8b9 ddba 723d
000001b0: aae6 7bbd 0b88 9f3d f6f7 44bd ff2a d43d
000001c0: 56b8 753c f6a4 8a3d a854 803d b3e9 8cbd
000001d0: 81c4 79bd 6b76 963d 590d 91bc 8bfa 03bd
000001e0: 5aa7 5f3c da33 8c3d fc51 7abd 77e3 4abc
000001f0: d445 053c 3fb7 913d 5529 fa3c af9f 37bd
00000200: 0eda 8dbd c455 98bd b99b 8c3b 594a 71bd
00000210: 946f 11bd cb7a bb3d d2e0 023d a2f6 503d
00000220: cc1b 9f3d b6e3 963d 3bd9 c23d 937e a43d
00000230: 468c e93c b4c2 aa3c 9b30 02bd fc79 183d
00000240: 972b 953d 86de be3d 0012 92bd db0a 6f3d
00000250: 9104 943b 9802 9cbd 19a2 49bd e7b9 233b
00000260: 5011 0c3d 10a4 04bd c461 9abd 55a2 333c
00000270: 47ca f7bb 8326 853d ccc6 bb3b f174 513c
00000280: bd0d a63d e603 0b3b b87d 883c 73ff aa3d
00000290: 5f21 5c3d f08c 393d 3d55 4ebb 7b03 80bc
000002a0: 3b54 3c3d c86e 883d af90 753d 05a5 9bbd
000002b0: 2827 963c 29b7 6ebd 8b7b 893c 77c3 a5bd
000002c0: 653e 463d 7bf0 f0bc 76c0 6abd b40f 62bd
000002d0: c7f9 e93c 7ae4 8f3d b84d ae3b 5893 cc3c
000002e0: 8e84 473d 3cb6 89bd cd1b 873d f475 8bbc
000002f0: 973f 173d 0a65 afbd 75db 263c 8731 573b
00000300: 9d5b 39bd 5199 bc3d 736f 7fbd cd69 ee3b
00000310: 474b c53d f28f a1bb a68b 133d e235 febc
00000320: 5134 7ebd 4401 13bc 3057 923d da06 323c
00000330: c05e d93d f806 9abd e1f9 c3bd dbf8 64bb
00000340: 7852 80bd ab75 05bd 4b42 f03c cf22 673d
00000350: a10e 4f3d c85c 38bd e389 3a3d 73b3 61bd
00000360: 8ae5 cabc 4105 80bc bff8 293d 6da9 8d3c
00000370: e6f9 05bc 30ba a0bc 1716 3a3d 1e58 ab3c
00000380: 2001 42bd 84ef a7bd 65c6 2e3d 3a16 2a3d
00000390: 8c17 07bc 6efa 883d c742 edbc e26c babc
000003a0: 6af9 65bc 5456 813d a954 0dbc a587 45bd
000003b0: 6776 4fbd 74ee 95bd 42a1 893c a956 86bc
000003c0: 0214 293c 5106 643d 19bf 8d3c 8020 84bd
000003d0: 521a 4c3d ff2a a2bc 2656 a33c 4a76 69bc
000003e0: fc43 81bc 48eb 7cbd ee4f 063d 1d79 2ebd
000003f0: 7929 e93c 770a cd3c 7e2e 4cbd b9f8 c1bd
0.070533685 0.086481445 -0.045559388 -0.018337073 -0.046570234 0.099536344 0.1257194 0.08492768
-0.032000672 0.038492646 0.039291758 -0.061851673 0.07618943 0.0424586 0.05252096 0.08937069
0.0841602 0.051776078 -0.032543194 0.02999996 0.01981344 -0.04255734 0.08364952 0.09028819
0.083703525 -0.033990853 0.05300756 0.046105586 -0.04353655 0.063440256 -0.015389833 0.0989222
-0.050544523 -0.017577091 0.12502897 0.14579688 0.049858976 -0.00042750716 0.035213713 0.06330929
-0.025040247 -0.013903737 0.024849974 0.05562388 0.004090547 0.011736868 0.11110876 0.036367215
0.08764581 0.00043367044 0.10716308 -0.040838983 -0.09204844 0.061429325 0.03007419 -0.020218212
0.010131454 -0.0010630726 -0.013300825 -0.08881077 0.049901918 0.024352333 0.018193932 0.063859895
0.016051786 -0.050959352 0.034520283 0.046630815 0.06427264 0.08537081 0.10248297 0.12480833
0.012155442 0.015907716 -0.009833467 0.00050995534 0.1390279 0.07439707 0.11820065 0.1298621
0.03426317 -0.029322844 0.107910275 0.00252667 0.02809399 -0.041423995 -0.0017375284 0.06576684
-0.0139129665 0.06737809 -0.029723205 -0.057525925 -0.023026776 -0.082816474 -0.04101288 0.05398364
0.018777542 -0.017814709 0.057738185 0.07113165 -0.02980645 0.13116734 0.069544636 -0.013368121
-0.021724584 0.041572157 -0.00047378152 0.059260238 -0.061499275 0.0778962 -0.048088036 0.10359763
0.014997562 0.06769745 0.06266147 -0.06880512 -0.060978416 0.07346805 -0.01770656 -0.03222136
0.01365074 0.068458274 -0.061113343 -0.012383333 0.008134324 0.071150295 0.030537287 -0.04483002
-0.06926356 -0.074382335 0.0042910245 -0.058908794 -0.0355068 0.0915428 0.031952687 0.051016457
0.07768974 0.07367651 0.0951409 0.080319546 0.02850927 0.020844795 -0.031784635 0.03722571
0.07283705 0.09319787 -0.071323395 0.058359962 0.004517146 -0.07617682 -0.049226854 0.0024982633
0.034196198 -0.032383025 -0.075381786 0.010963996 -0.007561955 0.06501486 0.0057304855 0.012784229
0.08108089 0.002121204 0.01666151 0.08349504 0.053742763 0.045300424 -0.0031483911 -0.01562666
0.045978766 0.06661755 0.059952434 -0.07599834 0.018329218 -0.058280144 0.016782543 -0.080939226
0.048399348 -0.029411545 -0.05731245 -0.055190757 0.028561486 0.07026 0.0053193234 0.024972603
0.0487104 -0.067242116 0.065970995 -0.017024018 0.03692588 -0.085641935 0.010184159 0.0032835917
-0.045253385 0.0920893 -0.062362146 0.007275796 0.09633499 -0.0049304897 0.03602185 -0.031031553
-0.06206161 -0.00897247 0.07145536 0.010865891 0.10613775 -0.075208604 -0.09569145 -0.0034938368
-0.0626573 -0.03258292 0.029328486 0.05642968 0.05055106 -0.045010358 0.045541655 -0.055102777
-0.024767656 -0.015627505 0.04149699 0.017292703 -0.008177256 -0.019620031 0.045431223 0.020916041
-0.047364354 -0.08199981 0.042669673 0.041525103 -0.00824536 0.06688391 -0.028962506 -0.022756997
-0.014036516 0.06315294 -0.008626142 -0.048225064 -0.050650027 -0.07320872 0.016800527 -0.016398745
0.010319712 0.055670086 0.017303037 -0.064515114 0.04982979 -0.019795893 0.01993854 -0.014249394
-0.015779488 -0.06174782 0.03279107 -0.04259597 0.028462159 0.025029404 -0.049849026 -0.09471268

lstm.bias_hh_l0 f4 [512]
00000000: 74cf bfbd 150b 54bd 8bff 52bd e8ee 0b3c
00000010: 397b 913d 36ca 5f3d cef9 d03d dfe6 79bc
00000020: 7f36 fb3d bb4d 46bd 816e 313e 6b42 903c
00000030: 34da 3fbd ba74 773d a890 d33d 3ca0 363d
00000040: 8802 1ebd c0c8 2fbd a9bb 73bd 7404 88bd
00000050: d57c aabc a91e 953c fcec 9abd 5622 ed3d
00000060: 384b 4c3d 9912 ce3d 024d 07bd 84b5 debc
00000070: f36e db3b ed11 883c ee01 6ebc a7f6 b73d
00000080: c698 d9bb 35e5 6e3d 458e eb3d 3b63 a43d
00000090: 0da3 703d 6c9d 883c dda1 863c eba0 493d
000000a0: 2557 153d d502 5ebd 3e0a 893d c27f f0bc
000000b0: f8ae 8f3d a16c 9ebd 171e c7bc 8c3f 65bd
000000c0: e183 34bd 0d81 63bd fb69 f7bb 876e de3c
000000d0: be51 c5bb 6c14 d0bc 9fcc 62bd 8e79 95bd
000000e0: 7062 ed3c 2c7c 2d3c d7d6 7cbc f01c 09bd
000000f0: 4dc6 46bd 8241 263d 1228 523c 4c99 71bd
00000100: 72ae 8abc 5401 8abd 3759 bd3d 16d5 743b
00000110: 44c8 d63d 9380 2c3d 4450 b43d 2491 513b
00000120: 2065 03bc d0c6 f73d d23a bd3d e07c 4dbd
00000130: 35d3 853b 06d4 113c f591 963b dcad f63d
00000140: db6d 953d 1969 1bbd 82f9 b93d bd06 ba3d
00000150: a92b 35bc 264f f23d ccf4 54bd 9255 c9bb
00000160: 01c7 983d b6c3 edba e9ab 693d 9e74 543c
00000170: 82bb cd3d d6c0 0abd 7d9f b43d cdab ad3d
00000180: e782 a2bc 1429 2abd 1801 e63b b150 a63d
00000190: 7877 8abd dfff 4c3d 52c6 8c3c 785b a13d
000001a0: 5f52 b53c d1df cfbc 4cbb 173c dfc9 243d
000001b0: 2608 2ebc 18ba a2bc 653f bfba 94c0 863d
000001c0: ea17 103e dc33 f73c 42e9 75ba 9567 a73c
000001d0: a4db 12bd d934 1eba 82ce 55bd 5a9d 223d
000001e0: 11fe 09bd 73db 363d 6c9d 423d 1989 563d
000001f0: 5cd6 1c3d 0619 c23d 1338 293d 9e49 d73d
00000200: b0c9 83bd 36d3 a43d 12d4 313c 4222 92bb
00000210: 6dc7 43bd 75ec dd3d e8a5 a93d a1bb 42bc
00000220: 400c 9abd bf5f 10bd 5c69 023d d3bb 933d
00000230: 0f95 803d 3cdd ad3d 490c 9f3d ba93 5f3c
00000240: 022d 693d b892 783d 4309 0e3d dbb1 0ebc
00000250: 9fb3 3e3d d227 32bd f52d 813d e742 b43d
00000260: f0b3 50bb d734 01bc 0ded a23d d1da 22bc
00000270: 42d2 f1bc c4ea 133d bc5f 013c 59f1 b93d
00000280: cbc6 b93d 947e 9c3d 0c0b 35bc 692e 63bd
00000290: 3765 edbc 4753 9d3d be03 863d d3ee b3bd
000002a0: 6396 2b3d 6d3d 67bb 59d4 203d 081a cdbb
000002b0: 7aaa 263d cb93 903d 6980 7b3d fe4f ffbc
000002c0: cb2b 803d 42c6 223d e5d5 03bd 6ab6 a53d
000002d0: 7e2b a1bc 47aa 9abc f619 a33d 308c b0bc
000002e0: 6a95 f3bc 709e 233b 2fa2 8b3d 45fd 6a3d
000002f0: b175 4e3d 1ff5 96b9 5196 d7bc 1214 74bc
00000300: e9e3 9bbd 0ccd 5abd d978 27bd 844f 86bd
00000310: 1038 84bc bd93 16bd aa87 253d 22d0 893d
00000320: 7556 a73d f720 9dbd 7b74 173c 215e f43c
00000330: c92e 9b3d fb1c 93bd f956 3a3d 3ffd 163d
00000340: 3c41 353d 9090 c63c d383 663c 7771 3e3d
00000350: 3680 adbd f404 443c 1277 88bd ad06 84bb
00000360: c5f6 503d 9022 8cbc 4db1 8e3d dbaf 273a
00000370: a930 df3b 50d2 af3c 5fb7 013d a0c8 9bbc
00000380: 1d4f 60bc fa95 3d3d 0e58 a0bb d8b4 583c
00000390: cd3a 2a3c 8a89 d93c 795b 873c dc4d 83bd
000003a0: 94f3 8abd c32d 38bd f3df e6bc e29a 24bb
000003b0: 1dc7 283d a645 b23d 5a97 183c 7117 0a3d
000003c0: 650f 4a3d 8420 88bd 4382 c73c b7c2 9c3d
000003d0: 0419 923d 089b 6d3d 616d a73d 015f 923d
000003e0: cc29 a0bd a701 9e3b 082a dabc 3b43 ccbc
000003f0: 9e2a 243c 7f15 6bbd cdc7 70bc 099c b9bd
-0.093657404 -0.05176838 -0.051513236 0.008540846 0.07103581 0.054636203 0.102038965 -0.015252798
0.12266254 -0.048413973 0.1732731 0.017609796 -0.046838954 0.060414053 0.10330325 0.044586405
-0.038576633 -0.04291606 -0.05950514 -0.06641474 -0.020811478 0.018203096 -0.075647324 0.11578815
0.04987642 0.10062141 -0.033032425 -0.027186163 0.006696576 0.01661011 -0.014526827 0.08982592
-0.0066405265 0.058324058 0.11501745 0.08026739 0.058749247 0.016676627 0.016434604 0.04922573
0.03646006 -0.05420192 0.06691407 -0.029357795 0.070157945 -0.07735563 -0.02430634 -0.055968806
-0.044071082 -0.055542994 -0.0075504757 0.027152313 -0.0060217073 -0.025400363 -0.055370923 -0.07298575
0.028977603 0.010588687 -0.015432081 -0.033474863 -0.048528958 0.040589817 0.012826936 -0.058984086
-0.016928885 -0.067385346 0.09245532 0.0037358454 0.104874164 0.042114805 0.08804372 0.003197738
-0.008019716 0.12098467 0.09239735 -0.05016792 0.0040840157 0.008900648 0.004595036 0.1204488
0.07296344 -0.037942026 0.09080793 0.090833165 -0.011057773 0.118315026 -0.05199127 -0.006144234
0.07459832 -0.0018139991 0.057048712 0.012967257 0.1004553 -0.03387531 0.088194825 0.08480034
-0.01983781 -0.04154308 0.0070191734 0.081208594 -0.06761068 0.050048705 0.01718441 0.078787744
0.022134004 -0.025375279 0.009260964 0.04023158 -0.01062206 -0.019864127 -0.0014591037 0.065797
0.14071622 0.030176096 -0.00093807664 0.020435134 -0.035853997 -0.00060350966 -0.052198894 0.039700843
-0.033689562 0.044642877 0.04751341 0.05237684 0.038290367 0.09477429 0.041313242 0.10512088
-0.06434953 0.08048098 0.010853784 -0.0044596503 -0.04779761 0.10836116 0.08283597 -0.0118855545
-0.07521868 -0.03524756 0.03183876 0.07213559 0.06278431 0.08489463 0.07766015 0.013646061
0.05692769 0.060686797 0.0346768 -0.008709396 0.04655802 -0.043495007 0.06307594 0.08801823
-0.0031845532 -0.007886133 0.0795537 -0.009939865 -0.029519204 0.03611256 0.00789636 0.090792365
0.0907112 0.0764133 -0.011049997 -0.055464182 -0.028978927 0.076818995 0.065436825 -0.087857865
0.041891467 -0.0035284415 0.03926501 -0.0062592067 0.040689923 0.07059439 0.06140176 -0.031166073
0.06258353 0.039739855 -0.032186408 0.08091433 -0.019674059 -0.018880023 0.07963936 -0.021551222
-0.029734332 0.0024966262 0.068180434 0.057370443 0.050405208 -0.0002879286 -0.026316794 -0.014897363
-0.0761183 -0.053418204 -0.040886734 -0.06558135 -0.016140014 -0.036761988 0.040412582 0.06729151
0.08170787 -0.07672303 0.00924408 0.02983004 0.07577283 -0.07183262 0.0454931 0.036862608
0.044251665 0.024238855 0.014069515 0.046494927 -0.0847172 0.011964072 -0.06663336 -0.004029116
0.051016588 -0.017106324 0.06967411 0.0006396749 0.0068112207 0.02146259 0.031669017 -0.019016564
-0.013690737 0.046285607 -0.0048933094 0.01322671 0.010389996 0.026554842 0.01652311 -0.06411335
-0.0678474 -0.044965517 -0.02818296 -0.0025116731 0.041205514 0.08704691 0.009313429 0.03371376
0.049331088 -0.06646827 0.024354106 0.076543264 0.071336776 0.058009177 0.08175159 0.07147027
-0.07820472 0.0048219743 -0.02663137 -0.024934402 0.010019926 -0.057393547 -0.014696074 -0.090629645

lstm.weight_ih_l1 f4 [512, 128]
00000000: 564e 1b3c 842d 643d 1c0e 453d a654 19bc
00000010: c582 643d 5f4f 82bd b093 abbd 410e 7b3d
00000020: ae61 963d 0902 f0bc 8739 be3d 4184 8a3d
00000030: 3e93 bcbb 2865 a53d d91b 903c f096 8bbb
00000040: 6bb9 d73c d49d 26bd 9db1 4e3d 2107 a43d
00000050: 0523 bdbd 9c9f 913d aef9 243d f1d5 41bc
00000060: db60 9bbd 0790 723c d857 e0bc 96b9 723d
00000070: 04b1 ecbc 7247 68bd fe91 6fbd 95fd 263d
00000080: cfb1 2bbd 292e 783d 05db 5e3d 2638 40bd
00000090: ad94 013c 836d 733d 427a 893d 9fac 913d
000000a0: e8d2 cbbb 5a92 bb3a 0bc7 36bd cd83 6abd
000000b0: c5cf bdbc 2861 25bc 863b b73d f4dd 0bbd
000000c0: 4d17 a6bd 033b 8ebd 2e79 e9bc 97a9 6c3d
000000d0: d1b0 113d f4e4 12bd d70b 103c ef59 c1bd
000000e0: fcf8 bd3d 31f6 cabd 610c 8bbd fe1e 02bd
000000f0: 7a88 67bd e315 22bd 3944 293d 2469 3cbd
00000100: 9056 9abd d989 b0bd 7861 883c 9fa7 803d
00000110: c717 433d 7852 b53c 31b7 c0bd 6b59 f7bc
00000120: 43fb c93c 88c7 5ebc e6d9 853d 23d5 18bd
00000130: 219a fe3c 39f7 54bc 0fb6 e73b 41aa a9bd
00000140: 44de 8a3d 54ea 273d b751 11bd 93aa 983c
00000150: ad35 153d 4845 66bd 41dd 163d 6e9b 9e3d
00000160: 5163 53bd ce35 72bd 94bb bbbb 0760 0abd
00000170: 84a7 87bd d64a 013c 46a0 a23d fcfc 6a3d
00000180: e7c6 95bd 8b79 bebc 73b5 02bd c30e 803d
00000190: 06d2 643d aaa4 c63d 9ca8 533c 0846 44bd
000001a0: 07b9 ae3d 8489 c0bc 8cd4 793d 99ec c8bd
000001b0: b7f3 49bd 3623 833d 9c97 3bbd d3d7 923d
000001c0: 607e 44bd b44f a33d a649 953d 5f2e 893d
000001d0: 2049 d73c dfbe a1bc b6bf 553d 8c9b 88bd
000001e0: f783 c13c 5657 97bd 7fb5 ae3b 0d15 ae3d
000001f0: 36cd e3bc a5f8 4139 36b2 0b3c da84 373d
00000200: 57c3 683d f0c7 933d bf48 7a3d da59 5dbd
00000210: 0daf 1fba 43c6 f23c 3c3e 993d 7738 1bbd
00000220: aa4f 993d a60b 793b 0050 0d3c 8e13 9cbc
00000230: 89d7 b53c e110 123c 693f ea3c 108b 8e3d
00000240: 9221 68bd 76d2 2c3c 6b1d 8abd cf8e 81bd
00000250: a0f8 213d 3110 9fbd 417d 89bd ff97 89bd
00000260: e028 a53d c9c1 81bc aa34 aabc 479b b93d
00000270: 8d2e a03d b6da 30bd acab 533d b6eb be3d
00000280: 749e c1bc d534 443d 74dc c5bd b3de 8cbd
00000290: e207 98bd 7215 1fbd 926d 1b3d a3f4 80bd
000002a0: be14 c4bd 8159 39bd c41a 29bd 2b9b c03d
000002b0: 6c99 2ebd 0af5 5abd f7a2 9e3d 6c0d c33d
000002c0: a6f4 2b3c 7c04 cd3b 96d5 8c3d be6c 7d3b
000002d0: f598 c23c 3224 ac3d e0e6 b3bd 8a6c 23bd
000002e0: 9e4e 75bc 37de 993d 02fa 423d 7f1d 483d
000002f0: 65ec 71bd 8efc 663d 6ea3 b43d 1ac9 80bd
00000300: 6cbf 963c 0ae8 37bd 73c9 7d3b 39de 3ebc
00000310: f39f 163d ae51 a43d 5b43 573d 4f21 323d
00000320: e720 1b3d e8b1 6dbb 95ff a13d 6e69 6d3c
00000330: 92dd 943d fcc4 e33c 6440 8d3d 3eec 1bbd
00000340: e097 4bbd bdaa 853b f01c a23c 4f8d 64bc
00000350: 0cac fc3b 7d39 9ebd 98e0 bcbc d35e bdbd
00000360: d6e4 bb3d 5adb 883d 5e20 903c 60cb 8b3d
00000370: 8fb6 9a3d 600e d3bc 6b6f bdbd ecc9 18bb
00000380: 6ac8 c9bd fcbc 3a3b f720 913d bfe0 e73c
00000390: 4f98 37bd 74bb bb3c d36b b63d 1bc8 78bc
000003a0: 0aab ba3d 02ad 413d b3c9 7ebc fae3 563d
000003b0: 06ad 613d bc58 4abd af2a 63bd 012f 913d
000003c0: 885c 9f3d a65c 6ebd 6f90 a93d 7e6a 8f3d
000003d0: ecb5 67bd 2a01 cbbd ec2f 59bd 86b5 883d
000003e0: 133c 943d c428 dbbc d599 81bd 72a9 83bd
000003f0: 5e8a 803d beb6 c03c e1e4 61bc 4064 7d3d
0.009479126 0.05570747 0.04810916 -0.009358561 0.055788774 -0.06362795 -0.083777785 0.06129289
0.0734285 -0.029297845 0.09288316 0.06763507 -0.0057548573 0.08075935 0.017591404 -0.0042599365
0.026333531 -0.04067786 0.050462354 0.08009172 -0.09235195 0.07110521 0.040277176 -0.011830793
-0.07586833 0.014804847 -0.027385637 0.05925902 -0.028893001 -0.05670876 -0.05848884 0.04076918
-0.04191762 0.060590897 0.054408092 -0.046928547 0.007908982 0.05943061 0.06712772 0.07113003
-0.0062202103 0.0014310584 -0.044623416 -0.0572546 -0.023170361 -0.010093965 0.089469 -0.034147218
-0.08109913 -0.06944849 -0.028500166 0.05777892 0.035569016 -0.035862878 0.008791885 -0.094409816
0.092760056 -0.099102385 -0.067894705 -0.031767838 -0.05652664 -0.039571654 0.041324828 -0.045998707
-0.07536042 -0.08620042 0.01664804 0.06281971 0.047630098 0.02213405 -0.09409941 -0.030194005
0.024655944 -0.013597377 0.065357015 -0.037312638 0.031079354 -0.012998396 0.0070712636 -0.082844265
0.06780675 0.040994957 -0.03547832 0.018636024 0.036428142 -0.056218415 0.036832098 0.077444896
-0.051608387 -0.059133343 -0.005729148 -0.033782985 -0.06623748 0.007891377 0.07940726 0.05737017
-0.07313328 -0.023251316 -0.031911325 0.062528156 0.055864356 0.09699376 0.012918618 -0.04791835
0.08531385 -0.023503073 0.060993716 -0.098107524 -0.04930469 0.064032 -0.045798883 0.071700715
-0.047972083 0.079741865 0.07289438 0.06698298 0.026279986 -0.019744335 0.052184783 -0.06670293
0.023622496 -0.07389705 0.0053316946 0.08500109 -0.027807813 0.00018498542 0.0085263755 0.04480443
0.056826916 0.072158694 0.061104532 -0.054040767 -0.0006091453 0.029635554 0.074825734 -0.037895646
0.07485898 0.0038001328 0.0086250305 -0.019052293 0.022197502 0.008915157 0.02859469 0.06960118
-0.05667264 0.010548225 -0.06743892 -0.06326067 0.039543748 -0.0776676 -0.067133434 -0.06718444
0.08064437 -0.015839474 -0.020777065 0.0906282 0.07821379 -0.04317733 0.05167739 0.09322302
-0.023635127 0.047901947 -0.09661189 -0.06878414 -0.074233785 -0.03883881 0.03794629 -0.06296661
-0.09574269 -0.045251373 -0.04128529 0.09404596 -0.042626783 -0.053456344 0.07745927 0.095240444
0.01049534 0.006256638 0.06876676 0.0038669552 0.023754576 0.08405341 -0.0878427 -0.039898433
-0.014972357 0.07513087 0.047601707 0.048856255 -0.059063334 0.0563932 0.08820234 -0.06288357
0.018401824 -0.044899024 0.003872481 -0.011649662 0.036773633 0.08023392 0.05255447 0.043488797
0.037873175 -0.003626937 0.079100765 0.014490468 0.07268824 0.02780389 0.06897047 -0.038067095
-0.049705386 0.0040791915 0.01978919 -0.013949706 0.0077109393 -0.07725809 -0.023056313 -0.09246602
0.09174506 0.06682463 0.017593559 0.068259 0.075543515 -0.02576369 -0.09249767 -0.0023313714
-0.09852679 0.002849399 0.07086366 0.02830541 -0.044822987 0.022916533 0.089072846 -0.015184428
0.09114654 0.047284134 -0.0155510185 0.05246351 0.05509665 -0.04940103 -0.055460628 0.070890434
0.07781321 -0.058193825 0.08279502 0.07002734 -0.05656998 -0.099123314 -0.053024217 0.06675248
0.07238021 -0.026752837 -0.06328169 -0.064288035 0.062763914 0.023524638 -0.013787479 0.061863184

lstm.weight_hh_l1 f4 [512, 128]
00000000: 1487 0d3c c7af 2cbd 1ebe 933c 539b 37bd
00000010: 1515 95bc 482c 2bbc 3fb0 6d3d 21f2 bf3b
00000020: 2d9d 54bd 5537 f13c e514 aebd 1656 013b
00000030: 6200 c13c 51f3 773b 973c 3d3c a2ad 85bb
00000040: e404 00bd bb5f 753d e11a c0bd 36c7 783d
00000050: 217c c93d ad57 86bd 2058 22bd 498e 853d
00000060: c03a 793d b81d 9f3b ea6b cabc 1cf3 013d
00000070: 4513 d4bc b0c7 3cbd 1a8f 873d 6549 d8bc
00000080: ee15 bdbd 94cb 443d 164f 1d3d 5920 b63d
00000090: 98bf 4bbd 00fd 74bc 1b4f 943c 8113 76bd
000000a0: fff4 4a3d d3c3 e73c fe1f 54bb d9dd 2f3d
000000b0: 06f7 97bc c0c8 48bc 85be 553d 7250 613d
000000c0: a361 a63c f275 3a3d ca07 be3c e02e ea3d
000000d0: 654d 693d 9224 6dbd c1ec 32bc 50d8 b1bd
000000e0: 2b60 443d 12c8 aa3d 01c5 373d 4056 61bd
000000f0: c78e 173d 8f90 6cbc 267d 9abd 699a f2bc
00000100: a9ac 4abb 1ed1 573d c5fe 743d ba9a 95bc
00000110: 566d a1bd f3b2 303d f0f0 cc3c 63f2 223d
00000120: 5cd9 e0bc 30b3 8fbd c257 60bd f38a 46bd
00000130: 57ca 193d 2e00 083d 8451 2f3d 943d 10bd
00000140: 3973 503c d63a 8a3d 9e8b ae3d eb9f f53c
00000150: cab2 4fbd ed35 82bd a437 4d3d 8564 643c
00000160: 18df 15bd 70f0 d1bd ca4e 9a3d 23c7 58bc
00000170: 7166 a7bd 2d5d 89bd a533 09bd f15c 113d
00000180: ba0c 0dbd 6e20 31bd 7b9d 1bbd 10c2 a83d
00000190: 0493 60bc 9f7a 203d 7dfc a13d e0e3 8abd
000001a0: 5d2a 2abd a9bd 84bd 8c70 2fbd a042 42bd
000001b0: 34d6 c33d 745b 553c 6030 ea3c ab84 74bd
000001c0: 24cc 553d 20ec a4bc 8d13 57bd b75a 30bd
000001d0: ffe0 bd3c 2068 bebd 4d82 c3bd c6a9 843c
000001e0: ae99 7f3d 1e5b b73d 9897 95bd 0826 33bc
000001f0: 4c57 f5bc f215 9c3d 97da 9bbc eb08 eebc
00000200: 4b7c 53bd a05f f5bc e75c 6239 7bea fb3c
00000210: cd32 743d d665 ef3c 68e4 893d a5ad e93c
00000220: d026 853d 4f6c 7a3d 8328 a33d 8811 fd3a
00000230: 6336 4bbd eec7 543d 616c e43c d3c6 0ebd
00000240: 4172 5b3d eb1b 483c f98c 0fbc b921 793d
00000250: 886c 143d dff2 0d3d 6b09 9d3d e488 9b3d
00000260: 2145 133d ee5f 37bd ab47 863d a79a 6ebd
00000270: 9abc e53b 2e45 de3c c581 7fbc 9c98 84bc
00000280: f06c 45bc a0bd b83c f9a1 063d c51b e23c
00000290: bb80 753c 7139 883d 1bc1 e03b 1298 8fbd
000002a0: 7dc8 57b9 f58b 913d d126 91bd 474b 64bd
000002b0: ce51 a43d 706d 1a3d eabb 963d 6506 c1bb
000002c0: ba39 643d bebb eeba aa21 88bd fee0 f93c
000002d0: e44d c73d 3303 183d 5a35 c8bc 3830 e8bc
000002e0: 22b9 b93d 8eb7 913b 3cb0 85bc 8a00 20bd
000002f0: 6918 40bd 2cc4 513d d511 cf3a 5ee1 babd
00000300: 2868 bd3d fa29 7ebd d5bd 53bd e900 103d
00000310: fc1d 223d a888 903c 2ce2 363d 3ff1 9cbd
00000320: ead7 50bd 66b8 07bd 4339 1c3d 9954 653d
00000330: b37b aebc 2fcf 85bd 803b 2bbc 7d22 1b3d
00000340: 2a9d a6bd 3f71 f43b d790 a33c 3c8f 5d3d
00000350: 62d2 5bbd d3e7 22bd 8b42 9dbc 57f7 7fbd
00000360: 572c f93c 752b 643c 4139 803d 4743 273d
00000370: 3224 cabc 68d3 d63c b6a9 c23c 54bb 353d
00000380: 1b03 6abc 5712 923c f72e fe3c 92ae 85bd
00000390: ee28 a53d 5871 21bd 7d01 3e3d b805 b03c
000003a0: f510 763b 2ee8 373d 1eae cdbd 4c44 693c
000003b0: 827f 2e3d 7cd2 193c 1e96 a03b 3863 18bd
000003c0: e78d 573d 0743 973c b732 943d 33f4 d7bc
000003d0: 7f9a 143d 549e 17bd c430 c03d cd75 ce3b
000003e0: e952 d33c 3925 893d ee47 b7bb 5a67 283d
000003f0: fc58 b9bd 4b74 00bd d4ff cc3c 3b02 af3d
0.008638162 -0.04215982 0.01803499 -0.044825863 -0.01819853 -0.010447569 0.05802941 0.0058577214
-0.051907707 0.02944533 -0.08500079 0.001973515 0.023559753 0.0037834237 0.01155009 -0.0040795365
-0.031254664 0.05990575 -0.09380127 0.060736857 0.09838129 -0.065596916 -0.039634824 0.06521279
0.060847044 0.0048558377 -0.02470966 0.031725988 -0.025888095 -0.046088874 0.06619091 -0.026402185
-0.092326984 0.04804571 0.0384055 0.088928886 -0.049743265 -0.014952898 0.018104127 -0.060077194
0.049550053 0.028291618 -0.0032367702 0.04293618 -0.018550407 -0.012254894 0.052183647 0.05500836
0.020310229 0.045522638 0.023197073 0.11434722 0.056958575 -0.057896204 -0.010920704 -0.086838365
0.047943275 0.08338942 0.044865612 -0.055013895 0.037001397 -0.014438762 -0.075434014 -0.029614644
-0.0030925667 0.052689664 0.05981328 -0.018262256 -0.07882182 0.04313941 0.025017232 0.03978194
-0.027447395 -0.07016599 -0.054771192 -0.048472356 0.037546482 0.033203296 0.04280235 -0.035214975
0.012722784 0.06749503 0.085227236 0.029983481 -0.050707616 -0.06357942 0.05010189 0.013939981
-0.036589712 -0.10250938 0.07534559 -0.013231072 -0.08173836 -0.06707225 -0.033496518 0.035489026
-0.034435965 -0.043243818 -0.037991982 0.082401395 -0.013706926 0.03917944 0.079094864 -0.06781745
-0.041544307 -0.06481487 -0.042831942 -0.04742682 0.095623404 0.013022292 0.02858752 -0.059696835
0.052196637 -0.020132124 -0.05250888 -0.043055262 0.023178576 -0.09297204 -0.09546337 0.016194236
0.06240242 0.08952926 -0.07304305 -0.01093436 -0.029948853 0.07621373 -0.01902513 -0.029056987
-0.051632207 -0.029952824 0.00021587648 0.030751457 0.05961876 0.029223364 0.06733018 0.028525183
0.065015435 0.061138447 0.07966711 0.0019307593 -0.049612414 0.05194848 0.02788371 -0.034857582
0.053575758 0.012213687 -0.008761638 0.060823176 0.036236316 0.034655448 0.07667812 0.07594469
0.0359546 -0.04476922 0.06556638 -0.058252957 0.0070110084 0.027132597 -0.015594904 -0.016186051
-0.0120498985 0.022551358 0.032869313 0.027601132 0.014984305 0.06651581 0.0068589575 -0.07011427
-0.00020578686 0.07106773 -0.07087482 -0.055735853 0.080234155 0.037702024 0.073600605 -0.005890655
0.055719115 -0.001821391 -0.06647046 0.030502792 0.09731653 0.037112426 -0.024439503 -0.028343305
0.090685144 0.0044469303 -0.016319387 -0.039063014 -0.04689828 0.051212475 0.0015798161 -0.09125017
0.09248382 -0.06205175 -0.05169471 0.035157118 0.039579377 0.017643288 0.044649288 -0.076632015
-0.05098716 -0.03313484 0.038140547 0.05598888 -0.021299219 -0.06533658 -0.010451198 0.037874687
-0.081354454 0.007459789 0.019966526 0.054091677 -0.053667434 -0.039771866 -0.01919677 -0.06249174
0.03041665 0.013926377 0.0626092 0.040835645 -0.024675462 0.026223853 0.023762565 0.044368103
-0.014282967 0.01783101 0.031028254 -0.06527437 0.08064447 -0.039414734 0.046388138 0.021487102
0.0037546728 0.04489916 -0.10042976 0.014237475 0.04260207 0.009388562 0.004900708 -0.037203997
0.052625563 0.018464578 0.072362356 -0.02636156 0.03628015 -0.037016228 0.09384301 0.006300664
0.02579637 0.06696553 -0.0055932915 0.04111419 -0.090501755 -0.031360906 0.025024332 0.08545347

lstm.bias_ih_l1 f4 [512]
00000000: 31c2 e2bb 86b5 9ebd 65b5 1cbd cbb9 9bbd
00000010: a7b5 a43d 49d3 0f3d dedd 473d 6e21 893d
00000020: 3456 bebc 65a1 c73c 76f6 5d3d 0aaf 9bbd
00000030: 239b 1e3d b5c0 5e3d be16 d8bc ec47 36bd
00000040: c533 403c 3074 973d d42d 88bd 1c6a e53c
00000050: 5db3 613d 098a 52bd 54e3 843d 2340 24bc
00000060: 882a b53c ed68 38bd 71fc 773d ba39 b13d
00000070: 770a d03c 9060 72bc d77e 9d3d 8dd2 3f3d
00000080: f146 12bd 3efb 8cbc 864a ad3d eb13 b4ba
00000090: f523 cebc 0a17 473d 5be9 12bd 0e1d bc3d
000000a0: 2254 bd3b 24ce 103d 2083 febc b777 583d
000000b0: f5aa 823d 4f6f b03a 88cf 8dbd 33c5 06bd
000000c0: eb44 ca3d d65c 9cbc 84e3 90bd 60d7 b1bd
000000d0: dfd3 b83c 0dd7 febb f138 a7bd f61a 643c
000000e0: 7659 d8bc 7cd3 05bd a288 123b aac0 3b3d
000000f0: 7673 f83d a5b0 84bd 5992 853d a2ee 433d
00000100: 8150 7e3d 0762 1b3d 240f 863d d1b6 a83d
00000110: 7319 903b 6d1c 903c f829 85bd 0356 bd3d
00000120: 3338 3dbd 3cf0 2cbd 2199 b9bd 1bdf 06bd
00000130: 75a3 8e3d 9a1e 913c 6029 8a3d 8602 823d
00000140: 03ce b9bb ab8e 833d 6f58 133d 10cb 783d
00000150: 1e7d adbd d66c 64bd c26d a43c e509 5b3d
00000160: 36af 41bd a531 a1bc 4627 0e3d 8abb 21bd
00000170: d595 babc 1a2e 88bd 85de 88bd 030b 9a3c
00000180: 9030 d6bc 45ac 4ebd 7884 8dbd 7c78 0ebc
00000190: 95a1 1fbb 06c9 8f3d 8a40 8e3c 3148 ec3c
000001a0: 8495 7c3d 9ef1 6d3d b454 c83c a979 97bd
000001b0: 79b9 1cbd 1453 7ebc f6fd b83d ecbb 063d
000001c0: bd80 abbd 8654 56bd b9f4 6dbd ccf3 a9bd
000001d0: d2af 273d 30ea 95bd 41c0 22bd e101 323d
000001e0: ea7a ebbc 3642 923d 520d 52bd b783 24bd
000001f0: 5171 123c c0c3 19bd 8819 e33d 767f 753c
00000200: 02f4 82bb 37a2 3e3d 36fa a93d 9b11 9e3c
00000210: a01c 35bd 88f3 a6bd 598e 7ebc 3f9a cebc
00000220: 051c 48bd e2bc 893d 415f e13b 6a97 2abd
00000230: 8dc6 a13d 8cc3 18bd 68eb 8d3d 6b89 20bb
00000240: 6121 d83c be4f 98bc 6297 52bd f9c5 c13c
00000250: 95a1 d3ba 025d a3bc 39f3 993d f58a 1d3d
00000260: 5ef2 6fbc aefb 723d 6522 94bb edbe f3bc
00000270: 31ae 3cbb d548 90bd 25be b7bd 6b41 e3bc
00000280: 7616 033d e1ef 52bd 1bbc 81bc d52f b73b
00000290: 82b6 993b 6cba 3f3d 1944 14bb da66 a2bd
000002a0: 3d45 acbd dd3a 9a3d d52f 19bd aa70 aabd
000002b0: b799 ca3c 7683 733d d4c1 17bd ef5c 7ebd
000002c0: 2e12 6a3d 3b9c debb e7d7 a2bd c434 303c
000002d0: a0a1 a0bd a0ed 5fbc 17dc d7bc 9f4a 23bd
000002e0: 9bab c6bc b5e5 8f3d 3b6f 2abc 2b1a 06bd
000002f0: 3129 47bd 0066 e83c 4f76 9b3d a7e5 a53b
00000300: dab3 babc b890 393d 6a69 2cbd 1e68 7c3d
00000310: 0c48 93bd f021 a2bd ca5c a13d 2f4b 8fbd
00000320: aa45 393d a52b 9e3d e745 fdba 131e 5c3d
00000330: 566c 8fbd 2383 003d 37bb 9dbc a863 5ebd
00000340: aea9 b1bc 8c86 ac3d db3d 4c3d 6f66 7bbc
00000350: b7fd 953d 8a4e 973b ecbe 493d c152 9d3d
00000360: 82df b33d bdd3 533d af17 95bd f252 7e3d
00000370: b803 633d c119 233d 6eac 783d 7df1 a53c
00000380: 6be0 3abd cbf2 323d 8107 bf3c 318a 53bd
00000390: 6cd0 25bd af5f 4fbc 089c a93d 329f f3bc
000003a0: a7f5 3abc 9e2f 133d 0400 0d3c 8877 46bd
000003b0: a515 8b3d ae0a 83bd dc54 57bd d061 303b
000003c0: feac 273d 612f 6f3d 9647 9dba de0e b8bc
000003d0: 990c ec3c efe1 1a3b 3f6e 173d 0eac 27bd
000003e0: 084f 31bd 8fe7 313d 261d 25bd 8747 74bd
000003f0: 8b52 a9bc 2abc 4fbd dd2c 7fbd b9ef 9a3d
-0.006920122 -0.077494666 -0.03825893 -0.076037966 0.0804246 0.035113607 0.048795573 0.06695829
-0.023234464 0.024368951 0.05419012 -0.076017454 0.03872217 0.054383 -0.026378032 -0.044502184
0.011731093 0.07395208 -0.06649366 0.028004698 0.055102695 -0.05140117 0.06488672 -0.010025057
0.022115007 -0.04502194 0.06054348 0.086535886 0.025395615 -0.01479353 0.076902084 0.046831656
-0.035712186 -0.017209645 0.0846148 -0.0013738846 -0.02516363 0.048605956 -0.035867076 0.09185229
0.0057778517 0.03535284 -0.031068385 0.052848544 0.06380264 0.0013460907 -0.06924349 -0.032902908
0.09876426 -0.019087236 -0.07074645 -0.08683658 0.022561966 -0.007777101 -0.081651576 0.013922444
-0.026409846 -0.03267239 0.0022359272 0.045838036 0.121313974 -0.06479005 0.06522054 0.047835
0.062088493 0.037935283 0.065458566 0.082379945 0.004397565 0.01759168 -0.065021455 0.09244921
-0.046196174 -0.042221293 -0.0906241 -0.032927614 0.06964771 0.017714787 0.06746173 0.063481376
-0.0056703105 0.06423696 0.03597301 0.06074053 -0.0847113 -0.055767857 0.020071868 0.053476233
-0.047286235 -0.019676993 0.034705423 -0.03948549 -0.022776524 -0.06649418 -0.06683067 0.018804079
-0.026146203 -0.050457258 -0.06910032 -0.008695718 -0.0024357785 0.07020764 0.017364759 0.028843017
0.061666027 0.058091752 0.024454452 -0.07396252 -0.038262818 -0.015522737 0.09032814 0.03289406
-0.08374164 -0.0523267 -0.058094714 -0.08298454 0.04093916 -0.07320058 -0.03973413 0.043458823
-0.028745133 0.07141535 -0.051282234 -0.040164676 0.00893815 -0.037540197 0.11088854 0.014984002
-0.003996373 0.04654142 0.08299677 0.019295504 -0.044216752 -0.08151919 -0.015536868 -0.025220035
-0.048854847 0.0672548 0.00687781 -0.041648306 0.07899199 -0.037295863 0.06929666 -0.002449597
0.026383104 -0.018592712 -0.0514139 0.023653971 -0.0016146178 -0.01994181 0.07517094 0.038462598
-0.014645187 0.05932205 -0.0045207017 -0.029754126 -0.002879035 -0.070451416 -0.08971814 -0.027741155
0.032003842 -0.051498298 -0.015836766 0.005590419 0.004690946 0.046808645 -0.0022623597 -0.07929774
-0.08411644 0.075307585 -0.03739913 -0.0832227 0.0247315 0.059451543 -0.037050083 -0.062100347
0.057146244 -0.0067935265 -0.07951336 0.010754768 -0.078433275 -0.013667494 -0.026350064 -0.039866086
-0.02425175 0.07026235 -0.010402496 -0.0327398 -0.048623268 0.02836895 0.07590925 0.005062777
-0.022790838 0.04530403 -0.04209272 0.06162273 -0.07191476 -0.07916629 0.07879026 -0.06996762
0.045232452 0.07723168 -0.0019323201 0.05373962 -0.07003085 0.03137506 -0.01925431 -0.05429426
-0.021687355 0.084241 0.049863677 -0.015344246 0.07323783 0.004617517 0.049254343 0.076818
0.08782865 0.0517156 -0.07279908 0.06209082 0.05542347 0.039819483 0.060711317 0.020256752
-0.045624178 0.043688577 0.023319008 -0.05164546 -0.04048197 -0.01265709 0.08281714 -0.029738996
-0.011411107 0.035934083 0.008605961 -0.048453838 0.06791238 -0.06398521 -0.052571163 0.002691377
0.040936463 0.058394793 -0.0011999484 -0.022468027 0.0288146 0.0023633202 0.036970373 -0.04093557
-0.04328826 0.043433722 -0.040311 -0.059638526 -0.020669242 -0.050716557 -0.062298644 0.07565255
