TradingAlgortihm/model.pth (torch, 55269 bytes, 9 tensors)

lstm.weight_ih_l0 f4 [128, 1]
00000000: 7a60 64bb 0ba5 4abe 22b7 31bc 7c7c 8abe
00000010: 8bb5 c4bd f728 db3e 7fa8 c2bd dd3b 51bd
00000020: 7215 0bbe dfea 5ebe 8354 673e 5d56 84bd
00000030: c7ab 7a3e e9fc 85bd 42b5 923e b8e9 f3bc
00000040: 42f5 853e 164b 53bd e6b4 03bc 7ba6 913e
00000050: 5c5d 373e 8cd3 a13b 22fd 79be e0c8 a23e
00000060: d834 e3bd ed28 5f3e a3d5 4c3e 5f40 993e
00000070: 3154 533d c915 21be aecd ab3d 58c2 02be
00000080: ada8 ef3c e85a 6dbe e2c8 193e e307 a2be
00000090: a730 2abe 082d 813e 4b89 b33d 7d35 8a3d
000000a0: 71d8 7bbd 02b1 1bbe ab32 903e 3cb8 42be
000000b0: cf4a e43d 222e 043e 276d b63e ac2d 533d
000000c0: 886d 91bc 8a8c 40be e718 c6bc 1190 bc3c
000000d0: dea1 983e 32ba 57be 3d8d 32be 339e 3bbe
000000e0: 808e 07bd ef43 8a3e fef5 be3e cfbb ae3e
000000f0: d9b0 9d3c b2cc c53d 1177 7d3e ddbe 2cbe
00000100: 4f3a be3e 5221 a63e e5b7 d63e 0dbd 923e
00000110: b56f 573e c705 6fbe 1c06 bd3e aff1 253e
00000120: 1863 d13e 4e40 a8be 3c16 3d3e 8b63 e3bd
00000130: 1d58 c1be 2cf5 e4be 21ee bd3e 0616 84be
00000140: c269 3a3d 7e45 b4be 4ae0 b73e dd64 2a3e
00000150: 19e8 a53e f657 213e 0043 a5be 259a 9bbe
00000160: 36ed aa3e b956 863e b7a7 cfbe b7dd d43e
00000170: c0dd a73e b92b adbe 18eb dbbe 7e92 e5bd
00000180: a55c 3abe 6d90 21bb 3c94 a33d 0d3a 75bd
00000190: ca92 9abc e902 a93e 0516 8e3d bd13 e63c
000001a0: ec05 95be 04f4 8cbe 2e8e c43e 869b 05be
000001b0: 6560 823e bd5a 21be 7771 003e a25c f43d
000001c0: 3a37 213e dd80 40bd 3bf7 a33c 9df3 0c3e
000001d0: f6ab 853e 5c07 83be 915f 72be 4a7e 4a3e
000001e0: 58f6 ac3c 2e8a 0b3e 34c7 9a3e 21c3 833e
000001f0: a0c7 5bbe 46ac 1bbe aab4 5c3e 4dd9 f3bd
-0.0034847544 -0.19789521 -0.010846885 -0.270481 -0.09604939 0.4280469 -0.09504794 -0.05108248
-0.135824 -0.21769284 0.22590832 -0.06461785 0.2447959 -0.065423794 0.28653914 -0.029774532
0.2616368 -0.05158528 -0.008038735 0.28447327 0.17906708 0.0049385484 -0.24412969 0.3179388
-0.110940635 0.21792956 0.20003371 0.29931924 0.051593963 -0.15730967 0.0838884 -0.12769449
0.029255236 -0.23179209 0.15018037 -0.31646642 -0.16620122 0.2522967 0.08766421 0.06748483
-0.06148571 -0.15204242 0.28163657 -0.19015592 0.11147081 0.12908223 0.35630152 0.051557228
-0.017752424 -0.18803611 -0.024181796 0.023017915 0.29810995 -0.21067122 -0.1743669 -0.18322067
-0.033094883 0.27004954 0.37297052 0.34127662 0.019249367 0.09658183 0.24752451 -0.16869684
0.3715386 0.32447296 0.41937175 0.2865986 0.21038707 -0.23342048 0.36918724 0.16205476
0.40895915 -0.3286156 0.18465513 -0.11102971 -0.37762538 -0.447183 0.3709574 -0.25798053
0.045511015 -0.35209268 0.35913306 0.16640039 0.3240364 0.1575621 -0.3227768 -0.3039104
0.33384103 0.2623804 -0.40557644 0.41575405 0.3278637 -0.3382242 -0.429528 -0.11209582
-0.18199404 -0.0024652735 0.07987258 -0.059869815 -0.018868823 0.33010033 0.06937794 0.028085584
-0.2910608 -0.2752992 0.38389724 -0.13047609 0.25464168 -0.1575727 0.12543283 0.11931731
0.15743724 -0.046997894 0.02001535 0.13764806 0.26107758 -0.25591552 -0.23669268 0.19774738
0.02111356 0.1362693 0.30230105 0.2573481 -0.2146287 -0.15202436 0.21553293 -0.11906681

lstm.weight_hh_l0 f4 [128, 32]
00000000: 4558 eb3d c1bc 9cbd 86c9 76bc 245c 473d
00000010: e472 a9be e716 bc3c 0989 393e 575b 16be
00000020: bd5b 14bd e888 4e3e 26c7 9cbc c279 afbd
00000030: 6d56 6dbe 7840 313d efa4 a73d 401d b0bd
00000040: c9b5 9dbe b0d3 25bc b2e1 d1bd b7bc 883d
00000050: d43c 8a3e 46db 8dbd ceaf c53d 4f33 2bbe
00000060: 7781 8c3d 3ee0 023d d802 27be 77e0 433e
00000070: 4aa1 01be 6ba3 293e 31b2 6cbe 6942 da3d
00000080: 02a2 e43b acf4 28be ebbd 623e 8de2 5c3d
00000090: f146 efbc b831 2ebe 00b0 b83d 1c41 ac3d
000000a0: 5bc1 6dbd e73d 7d3e 2aaf b33e eb8e 463c
000000b0: cf1e fa3c 8659 68be df2e 9e3c 376d 223e
000000c0: c010 67bc c299 903c 7487 20bd 340c abbc
000000d0: 0a49 0b3e 541b 323d fb38 0a3e 495f 92bd
000000e0: f6c7 c33d 75f8 4b3d 06a2 dcbe 69e6 c03e
000000f0: 56ac 14be 8ec6 aebd 54db 03be 3a5c 9a3e
00000100: ee37 90bc 89f9 78bd 4a25 403b b619 86bd
00000110: 9417 88bd 4206 7fbe d093 823d 53f3 133e
00000120: b5f6 023e c325 4e3e 3ce8 073e 3c71 40be
00000130: ab8c d7bd 573a 37bd 6916 c23d 1d79 5dbd
00000140: 04d5 2ebe e681 f43d ab89 c93c 3835 d13d
00000150: 53d5 aa3e e4a9 0fbd 3c79 ec3d ae37 3cbe
00000160: 9ead 00be da25 f13d 0ac0 83be f6bc ad3e
00000170: 119c 1a3e fc37 573d 749c 6abe d1f1 3c3c
00000180: e5f9 d63d 50c6 1ebe a4bc 113e d78e 30bd
00000190: 6b87 27be 8f61 82bd 04f0 4f3d 4aa9 11bd
000001a0: 68ad af3d 8cb8 623e edbb e03d 8b5b 883c
000001b0: 8a4a a5be 094e 8c3d f493 f5bc 4204 d83d
000001c0: 3e5b 52bd 2dd1 1e3c 1ca8 10bd fe57 093e
000001d0: e913 9ebd c164 f73d d0ce 003e 34e6 a3bd
000001e0: 1a46 803d 92e6 743e 780e a6bd 8ad0 7c3e
000001f0: 34f7 2cbe b358 c73d d296 49be 8818 f63c
00000200: 7625 0bbd 9777 4c3e e9f1 0e3e 63f8 05bd
00000210: a941 b13e 770a 5fbd afa0 bf3d 71e2 383e
00000220: c42e 0d3e 9d73 8ebe ab1a 1dbb 008e 40bd
00000230: 5b93 85bd af32 8c3d 7dba 5ebc fec2 12be
00000240: cf90 623e 924f 8cbe 77fd 91bc 64c6 69be
00000250: 5a96 87bd 2cf4 46be 035b ba3d 9f71 203e
00000260: b1e9 4d3d 5500 66bd 9f63 01be b05c af3c
00000270: 60b5 be3d b5f0 86bd b786 703b f1ac c0bc
00000280: 434f 133d cc15 853e 8caf 2b3e 0c1f 4e3e
00000290: d49e 373e 20f4 ddbd 1ccc 353e 6536 abbc
000002a0: 0ea9 033e 4d68 9bbe fde5 613d 4ab5 9cbd
000002b0: e5f7 1a3e 2566 0cbb dac2 ce3c 427f 4ebe
000002c0: bcfe 98bb 1e5e 08be d792 933d d942 aa3d
000002d0: 24e5 09be b600 b53d f18d 9bbe 9b7a 2dbe
000002e0: c805 783d 7cb8 6d3d dd7b a2bd 8266 853e
000002f0: 84dd 8f3e 6cd3 4dbe 6e4e ee3c 7977 9fbd
00000300: d711 83bd 75fd 82bd 39d9 5ebe 741f b23d
00000310: eb2d a13c 5a28 aabe 2e6d ceb9 f7d8 b1bc
00000320: 8891 78bd afae 353e 112e c43c 6717 db3d
00000330: 6940 2d3d e461 2bbe 13bb 583e 7764 b33d
00000340: b585 91be 914f 223e c21b 43be 80a3 333e
00000350: ba69 603d 0a85 4a3c 2474 0e3b eef4 32be
00000360: c55b 533d 843f 923e d198 b03d eb21 403e
00000370: 8995 de3d cde9 b9bd bf41 42be ef37 e6bc
00000380: 9158 623e c455 d83d 158d 92bd 2e4c e53d
00000390: ccb2 54bb 134f 333e 4025 eb3c 75bc ca3b
000003a0: 9764 8a3e 9b45 643d 591e 39be 6a44 04be
000003b0: 0d03 3b3e 89f4 0ebe 187d 7bbd 9043 b6bd
000003c0: 877e 0e3e bf41 4ebe 7787 a5bc 455b 82be
000003d0: dc5e a3be 0a0d d73b 8a01 ed3c 08e8 213e
000003e0: 2330 bd3c 3b03 50be f89f 9a3e d65a 49be
000003f0: 916b 343e 19f9 c7bd 91d5 0b3e fd65 1bbd
0.114914455 -0.076531895 -0.015062695 0.048671857 -0.33095467 0.02296014 0.18118681 -0.14683281
-0.0362203 0.20169413 -0.01913793 -0.08568145 -0.231775 0.043274373 0.081857555 -0.08599329
-0.30802754 -0.010121271 -0.10248126 0.066766195 0.26999533 -0.06926589 0.09652673 -0.16718791
0.06860631 0.031952135 -0.16309679 0.19128595 -0.12659183 0.16566245 -0.2311485 0.10657198
0.0069773206 -0.16499585 0.2214276 0.053926993 -0.029208632 -0.17011154 0.09017944 0.08410856
-0.058045726 0.24730645 0.35094577 0.012119035 0.030532269 -0.226904 0.01930946 0.15861975
-0.014103115 0.017651442 -0.03919168 -0.020879842 0.13602081 0.043483093 0.13498299 -0.071470805
0.09559624 0.049797494 -0.43092364 0.3767579 -0.14518866 -0.08533965 -0.12876636 0.30148488
-0.017604794 -0.06078485 0.00293191 -0.06547873 -0.06645122 -0.24904731 0.06375849 0.1444829
0.12789424 0.20131592 0.13272184 -0.18793195 -0.10524877 -0.04473337 0.09476931 -0.05407058
-0.17073447 0.11938839 0.024601778 0.10215229 0.33365878 -0.03507413 0.11546561 -0.18380615
-0.1256623 0.11774798 -0.25732452 0.33933228 0.15098597 0.052543625 -0.22911245 0.011532263
0.10496882 -0.15505338 0.14232117 -0.043104973 -0.16360252 -0.06366264 0.050766006 -0.035561837
0.085779965 0.22140712 0.10973344 0.016645214 -0.3228343 0.068508215 -0.029977776 0.10547687
-0.051356547 0.009693426 -0.03531657 0.13412473 -0.07718641 0.12079764 0.12578893 -0.08002892
0.06263371 0.2391608 -0.081082284 0.24688926 -0.16891176 0.09733715 -0.1968644 0.030040994
-0.033971272 0.19967495 0.13959469 -0.032707583 0.34620407 -0.05445334 0.0935682 0.1805513
0.13787371 -0.2782258 -0.0023972194 -0.04701042 -0.065222465 0.06845605 -0.013594267 -0.14332196
0.22125553 -0.27404457 -0.017821057 -0.22829586 -0.06620474 -0.19429082 0.0909939 0.15668343
0.050271694 -0.05615266 -0.12635659 0.021406502 0.09311938 -0.0658888 0.003670139 -0.023519965
0.03596426 0.25993192 0.16766185 0.20129031 0.17931682 -0.10837579 0.17753643 -0.02089996
0.12857458 -0.30353013 0.055150975 -0.07651766 0.15133627 -0.0021423188 0.025239397 -0.20165733
-0.0046690386 -0.13317153 0.07205742 0.083135314 -0.13466316 0.08838026 -0.3038173 -0.16941302
0.06055239 0.058037266 -0.07933781 0.2605477 0.2809869 -0.20100182 0.029090133 -0.077864595
-0.06399887 -0.06395999 -0.21762551 0.086974055 0.019675216 -0.3323391 -0.00039372727 -0.021709902
-0.060685664 0.17742418 0.023947747 0.10697823 0.042297754 -0.16736561 0.21165113 0.087593965
-0.28422323 0.15850665 -0.19053558 0.17542839 0.05478833 0.012360821 0.0021736706 -0.17476246
0.05160119 0.28564084 0.086228974 0.18762939 0.10868365 -0.09077797 -0.18970393 -0.028102843
0.22104098 0.105632335 -0.071558155 0.11196171 -0.0032455204 0.17510633 0.028704286 0.0061870166
0.2702987 0.055730443 -0.18077983 -0.12916723 0.18262883 -0.1396047 -0.061398596 -0.08899605
0.13915454 -0.20142268 -0.020206196 -0.25460258 -0.3190831 0.0065628337 0.028931398 0.15811169
0.023094242 -0.20313732 0.3020017 -0.19663557 0.17619158 -0.097643085 0.13655688 -0.03793906

lstm.bias_ih_l0 f4 [128]
00000000: c59e 093e 48fd 193d fd92 0e3e feb1 3e3e
00000010: ee2b 64be 7298 0ebc 877f 9abc bd8a e2be
00000020: 5889 d63d 9e83 4ebd 146a cdbd 98ee 08bc
00000030: baea 8cbc c22b ff3d 7b0c 733b b71f 59bd
00000040: 45b2 b6be 544e ae3c 08d7 3f3d 5003 313b
00000050: 52c3 603d 2f54 ab3d fbc7 dbbc de8a 09be
00000060: ab70 0b3e a575 8bbe 34d3 d5bb a93e 0f3d
00000070: 5880 563e e301 ce3c 4bdf 0f3e 716b 82bd
00000080: ef4d 733c b21d 9c3d 6482 ad3d 8f19 183e
00000090: 8859 18be 2a98 37be 766b 9bbe 74c2 13bf
000000a0: 34fe 1cbd 7eb4 b33d 674e 32be c278 a8be
000000b0: a9d0 70bd c6fd a03d a253 09be 50f8 8dbe
000000c0: 2771 abbe 95d8 3fbe 8f0e 7e3c 1a65 84be
000000d0: 8e79 a13d 024e 423d 7614 133e f367 a1be
000000e0: b37e 12be 7753 c0be 3443 56bd 28cf 583b
000000f0: f9c3 913d 6916 343d a7c1 583d aeb3 bcbe
00000100: 3c39 d8bd 7c27 c2bd e3da 3bbd 7564 c1bd
00000110: 9640 da3d b0fe cb3d 7255 d3bc 0a17 063c
00000120: 4a9d 1abe 2d1b c33d a700 44be a249 87bd
00000130: 0142 13be 945c c2bd f91e 943d 5d79 88bd
00000140: cbcd 0d3d 77ed 03be 41bc b3bd 877b e73d
00000150: 4f5d b33d 08fb 043e c82a 483c c48f bf3c
00000160: 0c52 e8bd 1461 fc3d 6059 a63d 6588 f23d
00000170: 5ff6 df3d 0b46 233c 75b6 e7bd 98e8 de3d
00000180: b7df aa3d 18e3 ae3e 24ea 5c3e 412d 323e
00000190: 4f05 0bbe 4ce8 813c 82df 303d cb96 9abe
000001a0: 5ac8 b53e af05 aebd bf36 44be e45b f8bd
000001b0: 6adc 0c3d 4e09 833e 312d 38be feca 14be
000001c0: 3bd5 63be 92b5 8cbd a144 9f3d 7a11 f3bc
000001d0: 7534 99bc 8269 22be 061d 3d3e f906 10be
000001e0: db0f 9d3e 40ec 67be 4781 5d3d b5f3 eb3c
000001f0: 3ed6 933e 313a 0e3e 10e3 113d 2e94 19be
0.13439472 0.037595063 0.13923259 0.18622586 -0.22282383 -0.008703338 -0.018859638 -0.44246474
0.10475415 -0.05041849 -0.100299984 -0.008357666 -0.01720177 0.12459518 0.0037086296 -0.05300876
-0.35682884 0.021277584 0.04683593 0.002701003 0.054873772 0.08365666 -0.026828757 -0.1343188
0.13617198 -0.27238193 -0.0065254215 0.034971867 0.20947397 0.025147384 0.14050023 -0.06368149
0.014850124 0.076228514 0.08472136 0.148535 -0.14877903 -0.1792914 -0.30355424 -0.57718587
-0.038328364 0.087746605 -0.1741272 -0.3290463 -0.058792744 0.078609034 -0.1341081 -0.2772851
-0.33484766 -0.18734963 0.015506401 -0.25858384 0.07884513 0.047437675 0.14363274 -0.3152462
-0.14306144 -0.3756368 -0.052310184 0.003308246 0.07117457 0.043966684 0.052919056 -0.36855835
-0.105577916 -0.09480187 -0.045863044 -0.09442989 0.1065685 0.09960687 -0.02579758 0.008184204
-0.15099064 0.09526668 -0.19140874 -0.06605841 -0.14380647 -0.09490314 0.0723247 -0.06663773
0.034620088 -0.12883554 -0.08776141 0.11302858 0.087580316 0.12986386 0.012217231 0.023383982
-0.11343774 0.12323204 0.08122516 0.118424214 0.109356634 0.00996543 -0.11314098 0.108842075
0.083434515 0.34157634 0.21573693 0.17400075 -0.13576244 0.015857838 0.043181904 -0.3019317
0.3550442 -0.08497178 -0.19161509 -0.12126902 0.03438989 0.25593036 -0.17985989 -0.1453056
-0.2224931 -0.06870569 0.07776762 -0.02967142 -0.018701771 -0.1586056 0.18468103 -0.1406516
0.3067616 -0.22648716 0.054078367 0.028802732 0.2887439 0.13889386 0.035616934 -0.14997932

lstm.bias_hh_l0 f4 [128]
00000000: fda7 7e3e 9065 533e 8257 b53e a08e 853d
00000010: 8ea1 d3bd e92b 3cbe ab86 513d f1cd 6ebe
00000020: f631 1f3e cba2 773e e2e9 8fbe c733 50bd
00000030: 4a3d 7d3d 6b26 813e 5c29 70be d252 95be
00000040: 1482 03bd 77ed 9ebd 559b 8d3d 435d 583c
00000050: 88e4 1ebe 366c 4fbd 2b9c 313e 79d7 9f3c
00000060: 669b 273e e224 72be 146c 853c e877 9d3d
00000070: e10f 04bd cb46 e13d 3fc8 743d 2323 d2bd
00000080: fdbc f6bd a27d 0ebd df0d 18be 920b 91bd
00000090: 9ccb 7ebe 8eb4 a3be 39fb 15be 19d4 93be
000000a0: 5a70 253e 362f 20be c74b 08be 4c1a 39be
000000b0: a709 643d db30 1f3d f175 80be ea5b 8dbe
000000c0: 9c52 84be 6cab 83be 4f6e 773c ecb4 6cbd
000000d0: 168f 58be 6b9b af3d 16d9 a4bd f463 f6be
000000e0: 3b14 1e3e e4be 93be 03a6 54be 9b7c afbd
000000f0: 27d2 c63d fa36 52be 842c 66be 684f 5dbe
00000100: 54dc a53d 821e 043e 0103 bb3d 6f87 f83d
00000110: 8391 19be c87f 99bc aeb9 a83c a9bc 79bc
00000120: cf5f 663d d272 12bd 1953 a63d 3c92 913d
00000130: 8729 13be 740d d63d ed5f d43d 1fb7 b03d
00000140: 4d48 9dbb 6b15 123e 59ed a53d 2532 76bd
00000150: 71b6 c43d 2576 10be 8975 613d 228f 223d
00000160: faac eb3d f364 34bd a6a2 11be 5153 2b3c
00000170: 9968 eabd be53 0a3d b3a3 563d 16ed c3bd
00000180: 0bdd 983e d6a2 a33e 6d95 963e f996 493e
00000190: 379f 9dbe 8f90 41be 6c62 8a3d 9460 65be
000001a0: 9c76 863e a7cb 19bd 993e 80bd 6d6f 1ebe
000001b0: d0c2 923d a7ae eb3e b356 e03c 0e2a 81be
000001c0: be46 18bd e24f 9ebd d0f3 143d d8d7 a0bd
000001d0: 3c14 41be 4704 e43c 3aad 303e eb80 e0bb
000001e0: 90b2 b33e 309b c9bd 918c 1dbd d32a 1a3d
000001f0: ec75 9f3e afb7 623e 8802 0abe 6bef c1bd
0.2486877 0.20644212 0.35418326 0.06521344 -0.103335485 -0.18376125 0.05115382 -0.23320748
0.15546402 0.24183194 -0.28108126 -0.05083063 0.061826028 0.25224623 -0.23453277 -0.2916475
-0.032106474 -0.077601366 0.06914393 0.013205829 -0.15516865 -0.050640307 0.1734473 0.019511925
0.16367874 -0.23646882 0.016286887 0.07688886 -0.032241706 0.10999831 0.059761282 -0.10260608
-0.120477654 -0.03478778 -0.14849041 -0.07082285 -0.24882358 -0.3197369 -0.14646615 -0.28872755
0.1615614 -0.1564301 -0.13310157 -0.18076438 0.055673268 0.03886495 -0.25089982 -0.27609187
-0.25844276 -0.25716722 0.015101983 -0.057789728 -0.21148333 0.085745655 -0.08049218 -0.48123133
0.15437405 -0.28856575 -0.20766453 -0.085686885 0.09708052 -0.20528784 -0.22477919 -0.21612322
0.08098665 0.12902263 0.09131432 0.12135207 -0.14996915 -0.018737689 0.020596351 -0.015242734
0.056243714 -0.035754032 0.08121318 0.0710797 -0.1437131 0.10451785 0.10369859 0.086286776
-0.0047998787 0.14265983 0.08101911 -0.060106415 0.096051104 -0.14107569 0.05504373 0.039687283
0.11507602 -0.044041585 -0.14222202 0.010456876 -0.11445732 0.03377127 0.05240221 -0.09566705
0.29856142 0.3196017 0.29410878 0.19686498 -0.30785534 -0.18902801 0.06757054 -0.22400123
0.26262367 -0.037547734 -0.062619396 -0.15472193 0.07166064 0.46031687 0.027385091 -0.25227398
-0.03717684 -0.0773008 0.03636533 -0.07853669 -0.18855375 0.02783407 0.1725358 -0.0068513057
0.3509717 -0.09844053 -0.038464133 0.037638497 0.31144655 0.22140382 -0.13477528 -0.094694935

lstm.weight_ih_l1 f4 [128, 32]
00000000: e346 cc3e fc4b c33e 09c9 363e b3fb a63e
00000010: 6879 9c3e d8e6 57be 5b84 283d 35c7 a0be
00000020: a9f6 ce3e 744d 6abe 72c8 ce3e f884 99be
00000030: 95c7 be3d f835 87be 0326 69bd 2ff3 3fbe
00000040: 4f77 e9bc 3304 8cbe e730 1a3e 6289 07bc
00000050: cb15 d6be 7e4f f63e 31ff b3be d70d 44be
00000060: cafd ba3e b93e ed3c 6da6 88bd 3d20 953e
00000070: d389 c33e d4c4 28be cb2c 8ebe 2503 98bd
00000080: 8610 65bb bed5 69bd 104b 223d 7159 e7bd
00000090: 2c1b bcbd 5387 8abe aa03 12be fe40 aa3d
000000a0: 8b61 c8bd 909e a23e eec8 5cbc e72e 273c
000000b0: 7d8f 79bd 137b 883e 3674 283e 292e ddbc
000000c0: 567e 82bd 1c2e 293e 53ff 3ebe b524 95bc
000000d0: 5eda c93d 16bd 9fbe eebc 863e 426c f73d
000000e0: 9e70 4c3c 16da 0ebe 4584 d43d 744c 1dbd
000000f0: 3299 50bd 6728 8c3e 5991 4c3e f879 4b3d
00000100: 0991 72be 2e47 bbbd b850 aebd b5bf 8fbe
00000110: 5ed9 bd3d 7ddc 8ebd 0f6f 463e 0ca1 45be
00000120: ee66 07be b74e 8e3e 2b03 223e 32d2 c13d
00000130: ea43 e0bd d76e 573e afcb 393e f093 ac3d
00000140: 94f5 873e c677 833d 732b 99bd 3a3f 953e
00000150: 3118 243d afce 58be 4f26 3c3e 71ed 84be
00000160: ed3e 3abd c9d5 6ebc 7672 78bd 2420 42bd
00000170: 51ef 24be a520 7c3e ccc7 0b3d 8df9 b83d
00000180: 4ded 1ebd 881d d9bd 5e7e b63c 2507 4cbd
00000190: b19f fc3c 6aee 06be 7da0 24be 3056 f93d
000001a0: a5d9 8d3d f7fe 96bd cf00 1ebb 2a02 41be
000001b0: 513d d0bd 5987 f73d 7674 debd d19c 013c
000001c0: 1c25 ccbd 5feb a3bd 4fc2 9cbd 57ca 5c3e
000001d0: a867 5b3c 4073 2ebe 22ea 823d 27a3 acbd
000001e0: efdd 633b bab4 45be fb49 8abc fcec 3d3d
000001f0: 94ec 443d 8d4c 683e 76fc 9b3c 8b48 96bc
00000200: b499 7d3d b3c6 d63c 6edc e93d d3c8 c9bd
00000210: 33fc 4abe b111 3abe 65bb 2e3d ca5b 63bd
00000220: 0840 e33c 1929 283c 7bdf b53d 9211 dbbc
00000230: b16f 5fbe 2619 40be fbdd 403d 7470 093d
00000240: 89ca a5bd 6064 833e ffed 35be 3e72 c53b
00000250: 7b71 063e 9ace cfbd ef0e 273e c918 0cbd
00000260: 11b0 883d f2e0 a53e ca01 84bc e179 673e
00000270: 13e0 853d 0674 b7bb 72b7 a5be 500f 5cbe
00000280: d722 aa3e 05a2 03be 4f24 a43e cc01 063e
00000290: f9b8 633e f0c7 8ebe 3c37 1b3e 5bac e93d
000002a0: eaaa 8a3e 62f1 52bd c03a 9b3e efc9 dcbd
000002b0: b5fd 57be eee5 cabe d9b7 293e c402 23be
000002c0: 168a b0bd 9f93 a6be d5c5 b73e 5988 d3bd
000002d0: 2e80 973d 14b6 c83d 563a 06be e19d 90be
000002e0: 5b28 803e 16b2 483e ee60 96be 2743 9b3e
000002f0: 61e2 4f3e ec61 bfbd e1e2 02be 580b 0ebe
00000300: 73ef b33e ab54 2d3e 7447 af3e 8683 8c3e
00000310: 02a3 443e 147a c6be 8e4f a33d 3e5c 1dbe
00000320: 64ac 753d 0784 a8be dcaf b03d fe5c 4dbe
00000330: 1d90 c9bc 5d01 8bbe 1a63 0b3e bc9c 8cbe
00000340: c053 1a3e 52fb 3abe 345f d53c d882 9c3c
00000350: d625 0bbe 0201 a83b 6db8 83be 13e2 34be
00000360: 3a54 8c3e 5b3c 0d3e e723 c7be d188 903e
00000370: 1c2f 923e 4835 aabe 4469 abbe f754 71be
00000380: 6283 f03c e6db 57be b89b dcbd bad3 9fbd
00000390: edca 783b db1e 3cbe ddb4 8dbe 6348 d93b
000003a0: 665a 52bd 0962 1a3e 10aa 953d e089 08be
000003b0: f16b 8e3e 645d 32bc 82d7 86be 7892 093e
000003c0: 4c9c 39bc 2121 243e a8de 8ebe 9c50 903d
000003d0: 7d64 d63c 2dd6 033d d983 1b3e 4062 e2bd
000003e0: dde4 013c 911b e43c 3e74 0cbd 90c7 76be
000003f0: 6d62 2ebc 829a 803e cbbe 8c3c 4946 3e3e
0.39897832 0.3814391 0.17850126 0.32613906 0.30561376 -0.21084154 0.04114185 -0.31401983
0.40422562 -0.22881109 0.40387303 -0.2998426 0.09315411 -0.26408362 -0.056921016 -0.18745111
-0.028499274 -0.27346954 0.15057717 -0.008272501 -0.41813502 0.48107523 -0.35155633 -0.19145904
0.3652175 0.028960573 -0.06672368 0.29126158 0.3819109 -0.16481334 -0.2776855 -0.07422475
-0.0034952476 -0.057088606 0.039622366 -0.112963565 -0.0918487 -0.2705637 -0.1425921 0.083131775
-0.0978423 0.317616 -0.01347564 0.0102040535 -0.060927857 0.26656398 0.16450581 -0.02699955
-0.06371753 0.16521496 -0.18652086 -0.01820598 0.09856103 -0.3119895 0.26316017 0.120811954
0.012478022 -0.1395038 0.10376791 -0.03840299 -0.05092735 0.27374575 0.1997732 0.049676865
-0.23688139 -0.09144436 -0.0851149 -0.28075948 0.09269975 -0.069756486 0.19378303 -0.19299716
-0.13222858 0.2779443 0.15821521 0.0946392 -0.109504536 0.21038376 0.18144105 0.08426654
0.2655455 0.06419329 -0.074789904 0.291498 0.040062133 -0.21172594 0.18373989 -0.25962403
-0.045470167 -0.014577338 -0.060656033 -0.047393933 -0.16106917 0.24621828 0.034126088 0.09031973
-0.038800526 -0.10601336 0.022277053 -0.0498115 0.030837866 -0.13176885 -0.16076846 0.12174642
0.06926278 -0.073728494 -0.0024109369 -0.18848482 -0.10167945 0.120863624 -0.10862057 0.007910923
-0.099680156 -0.08003878 -0.07654249 0.21561562 0.013391413 -0.17036152 0.063923135 -0.08429556
0.0034769734 -0.19307223 -0.01688098 0.046368584 0.04807718 0.22685452 0.019041281 -0.018345138
0.06191416 0.026217794 0.11418997 -0.09852757 -0.19822769 -0.18170811 0.042659182 -0.05550746
0.027740493 0.010263705 0.08880516 -0.026741777 -0.2181995 -0.18759593 0.047086697 0.03355451
-0.08095271 0.25662518 -0.1776657 0.0060255816 0.13129227 -0.10146828 0.1631429 -0.034203324
0.06674207 0.32398182 -0.016114134 0.22605087 0.065368794 -0.005598548 -0.3236652 -0.21490216
0.33229706 -0.12854774 0.3205895 0.13086623 0.2223853 -0.27886915 0.15157789 0.11409827
0.27083522 -0.05149973 0.3031826 -0.10780703 -0.21092875 -0.39628547 0.16574039 -0.15919024
-0.08620088 -0.325345 0.3589312 -0.103287406 0.07397495 0.09800354 -0.13108191 -0.28245452
0.2503079 0.19599184 -0.29370826 0.3032467 0.203012 -0.09344849 -0.1278186 -0.13871515
0.35143623 0.1692683 0.34234202 0.27444094 0.19202808 -0.38765013 0.07974158 -0.15367219
0.059978858 -0.3291323 0.086272925 -0.20055005 -0.024604851 -0.27149478 0.13612023 -0.2746333
0.1507101 -0.18259934 0.026046373 0.01910536 -0.13588652 0.0051270733 -0.25726643 -0.17664365
0.2740801 0.13792555 -0.3889458 0.28229383 0.28551567 -0.33243775 -0.3347875 -0.23567568
0.029359523 -0.21079978 -0.107718885 -0.078040555 0.003796275 -0.18371145 -0.2767705 0.0066309436
-0.051355742 0.1507646 0.073078275 -0.13333845 0.27816728 -0.010886524 -0.26336294 0.1343478
-0.011328768 0.16028263 -0.27904248 0.07046625 0.026170963 0.032186676 0.15187015 -0.11053896
0.0079281 0.027845176 -0.034290545 -0.24099565 -0.010643584 0.2511788 0.01718082 0.18581499

lstm.weight_hh_l1 f4 [128, 32]
00000000: c7ef 2dbc 70d9 7e3e 101d 9c3e 4343 09bd
00000010: b1c2 c33e 1837 26bd e686 653d 8cab 5a3e
00000020: 63de c53e dcc9 933d f65d 583e ebe3 9fbd
00000030: 188e 3d3d 7f6f c53d 6494 3dbe 9a4c 023d
00000040: c908 823e 4cca 4ebe 5bff fabd 46bd 05be
00000050: ea14 543e 3fe4 243c 42cc b2bd defa 84bd
00000060: f201 233c 515b a5be e4d5 513e 6ac6 0cbd
00000070: df0d d6bd c214 643e f254 0b3e ec7c 41be
00000080: fed8 973c 1766 0cbe 2d3b 2fbe ea9c de3d
00000090: d9c1 2dbe ca8e 80be 5bdd a23e a54e 60bc
000000a0: 9dc5 bbbd 2a76 ba3d a5d6 5b3e a3e4 3cbe
000000b0: b729 9ebd f800 f63d d166 093e 5797 1cbd
000000c0: 19b0 7ebe c016 bdbc d2a3 bb3e 2cab 8f3d
000000d0: 3b21 0c3c bb0d 803d 14c0 40bd aa34 6fbd
000000e0: dc1e 883d 9a85 2b3e 011d 15be dcab f2bc
000000f0: fa2e eebd 6a96 bdbe 1d7e f4bc a27e 3ebc
00000100: d41b 67be 5302 dc3b e3a2 89be a393 1d3c
00000110: 326d 5abe 6c6f 1e3e 6839 37be 51de 693d
00000120: 66c1 37be c71d 4fbe 58ee bebc 3bdc 4bbe
00000130: 1997 473c 2fd1 313c 564f 853e 61a6 47bd
00000140: d630 c53c e7ce 803e a7db 08be 81b5 be3d
00000150: 6e50 fc3c 8865 023d ab06 223e 3086 4f3e
00000160: c9e8 533e da3d 463c a256 84bd 04ac 053e
00000170: 6ffb 953d b6e6 d8bd 851f 0d3e bd71 07be
00000180: d84e 5dba 72e3 ad3d 6014 1f3e d1bc 953d
00000190: a693 cebd 0ab2 7e3d ef2a a03d b886 c7bc
000001a0: c3d8 1dbe 068c ba3d b499 1f3d 5e4d 19bd
000001b0: 2495 e33d b6b5 b3bc b17a bfbd d6a8 b0bd
000001c0: 1796 3e3e 56e1 1a3d be73 c6bc 5c1c 293e
000001d0: 382c 09be 98a7 f3bd 4744 0b3e 4c49 ba3d
000001e0: be3a e5bd bfca 12be 6d19 333e 8a2d 2e3d
000001f0: 079a 043e 53d4 1cbc 8418 01be a429 05bd
00000200: 4a82 c63e c820 fdbd aac1 f4bd 3561 483d
00000210: 23be 10bd 3f50 26be 8d58 b23e 740f cfbd
00000220: 88d0 50be df96 703e f0ff 313e a71d ac3d
00000230: 89e7 93bd f6a5 2c3d b6ea 3b3e 5936 353d
00000240: c4e5 44be ff3c 143e f8d1 123e 49d8 84bd
00000250: 3c23 efbd 7a49 243c cdd7 d0bd 0fdf 1abe
00000260: e2ae 083e d14f f9bb 0250 673e 9fa4 e5bc
00000270: ec84 74be 75eb 26be e5b0 afbd 8ca0 5bbe
00000280: 1009 ee3d 68d8 f73c 0dbe 1abe 0c63 9d3d
00000290: 03cf 4fbe 016e 8abd c847 e13a 93db 3dbd
000002a0: cf9e 44be 6a32 fbbd 65c7 1ebd 2f68 863d
000002b0: 3314 853d 92e1 103d 8dee f8bd eeaa 773d
000002c0: c60a a0bd dabc 4ebc 0867 363d 80c4 d3bd
000002d0: ead0 26bd e159 95bc a25a 153e 0659 c0bb
000002e0: 0e56 44bc 9e32 1e3e 079f 9ebc 386c 603c
000002f0: c285 84bd b7d2 183e 6fa1 33bd 9043 d5bd
00000300: 0bee c2bd b5c0 a6bb 409d eb3d f8e8 353e
00000310: b3a3 1bbe 699b 883d b8a8 90bb a29d e0bd
00000320: a98c 19be 88ef d13d 9e80 fabc 85d0 0ebe
00000330: 3950 bebc ac27 8d3c dce4 9c3d 89aa cb3d
00000340: daf3 6dbd 65af 183c 8b75 5c3e 076a a9bd
00000350: a4e6 c1bd 2352 fa3c 511f 0d3e 86cb 053e
00000360: 00eb 4b3e ca05 9e3d b55a 72be 5035 083e
00000370: a6bb 18be bb8b 313e 4d85 15bd d680 33be
00000380: b568 2f3e 5773 02be e7b4 883d 6ff1 663d
00000390: 55a0 cfbd d912 35be a24c fd3d 535f 14bd
000003a0: 88e9 f5bd ba12 513d 006a d8bd a957 b23d
000003b0: fe29 95bc 92c2 3138 1b4e 6b3c b5f0 7bbd
000003c0: ae29 86bd 07d5 da3c 6e13 fb3d cdcb d43d
000003d0: 1d6a b4bd c9ba f23d 0211 8cbd c1d5 89bd
000003e0: 6427 8cbd 4dcf 3cbd 59e3 2ebe e5ae 4f3d
000003f0: 020b 563b ffd5 d7bc 6354 f13d 047a dcbc
-0.010616249 0.24887633 0.30490923 -0.03351141 0.38234475 -0.040579885 0.056036852 0.21354502
0.3864623 0.07216236 0.21129593 -0.07807144 0.04627809 0.09640407 -0.18513638 0.031811334
0.25397328 -0.20194358 -0.122557364 -0.13060483 0.20711103 0.010064184 -0.08730365 -0.064931616
0.009949194 -0.3229623 0.20491749 -0.03436891 -0.104518645 0.22273543 0.13606623 -0.1889531
0.018536087 -0.13710819 -0.17112418 0.10869773 -0.16968478 -0.2510894 0.31809506 -0.013690625
-0.09168551 0.09104569 0.21468599 -0.18446593 -0.077228 0.120119035 0.13418128 -0.038230266
-0.24871863 -0.023082137 0.36648422 0.0701507 0.008552845 0.06252619 -0.04705818 -0.058399834
0.06646511 0.16750184 -0.14561845 -0.029622965 -0.11630054 -0.3702882 -0.029845292 -0.011626871
-0.2256921 0.0067141443 -0.26882085 0.009617719 -0.21330717 0.15472192 -0.17892992 0.057096783
-0.1794487 -0.20226203 -0.02330701 -0.1990823 0.012182021 0.010853096 0.2603709 -0.048742656
0.024071138 0.25157854 -0.1336504 0.09311963 0.03080007 0.03183511 0.15822856 0.20266032
0.20694269 0.0120997075 -0.064618364 0.130539 0.07323348 -0.105908796 0.13781555 -0.13226981
-0.00084422296 0.084906474 0.15535116 0.073114045 -0.100867555 0.06218151 0.07820689 -0.024356231
-0.1541472 0.091087386 0.038964942 -0.0374273 0.11112431 -0.021937232 -0.093495734 -0.08625953
0.18611942 0.037812553 -0.024225112 0.16514724 -0.13395774 -0.118972 0.13600264 0.090960115
-0.11192845 -0.14335154 0.17490168 0.0425239 0.12949382 -0.009572106 -0.12607008 -0.032510415
0.38771278 -0.12359768 -0.11951001 0.04892083 -0.03533758 -0.16241549 0.34833184 -0.10110369
-0.20392048 0.23495053 0.17382789 0.08404093 -0.07221896 0.04215046 0.18351254 0.044241283
-0.19228274 0.14476393 0.14337909 -0.064865656 -0.11676642 0.010027284 -0.10197411 -0.15124153
0.13347962 -0.007608392 0.22589114 -0.028032599 -0.2387883 -0.16300757 -0.08578662 -0.21447963
0.11622822 0.030254558 -0.15111561 0.07684907 -0.20293812 -0.06759263 0.001718753 -0.04635198
-0.19201206 -0.12265475 -0.038764376 0.0656284 0.06497993 0.03537137 -0.12154875 0.060465746
-0.07814555 -0.012618268 0.044531852 -0.10340214 -0.04072658 -0.018231334 0.14585355 -0.0058699874
-0.011983408 0.15448996 -0.01936294 0.013697676 -0.06470825 0.14924131 -0.043855127 -0.10413277
-0.09518059 -0.0050888904 0.115046024 0.17764652 -0.15199165 0.06670267 -0.004414644 -0.10967566
-0.14995064 0.10250765 -0.030578908 -0.13946731 -0.023231613 0.017230831 0.07660839 0.099446364
-0.058093883 0.009319161 0.21529214 -0.08272176 -0.09467819 0.030556744 0.13781478 0.1306592
0.19913864 0.07715948 -0.23667414 0.13301587 -0.14915332 0.17338459 -0.03650408 -0.17529616
0.17129786 -0.12739311 0.066751294 0.056382593 -0.10138003 -0.17682971 0.12368132 -0.03622372
-0.12007433 0.05104325 -0.10567093 0.08708126 -0.0182085 4.2381296e-05 0.0143618835 -0.061508853
-0.065509185 0.026712907 0.12259565 0.103904344 -0.08809302 0.11852033 -0.068391815 -0.067302234
-0.06843451 -0.046096135 -0.17078914 0.0507039 0.003266037 -0.026347158 0.117836736 -0.02691365

lstm.bias_ih_l1 f4 [128]
00000000: 2313 85be acff 423e 35c6 e73c 084f 9cbd
00000010: 0a26 823e 6798 253e 600d 5a3d 94c9 cfbd
00000020: 9fe5 63be 31aa aabe e27e 06be e758 7d3d
00000030: 75a2 6c3e c522 883e 1bf3 cb3c f196 80be
00000040: e3d6 fbbd 2d78 91bd f45f dc3d 8742 f4bd
00000050: da3b e6bc 86f9 f73d e83f 393d 2081 393b
00000060: db81 33bd cd5b d23d 1bd0 2bbc bdfa 1d3e
00000070: bda1 94bc 9d8a f23d 0371 b53d 5692 8c3d
00000080: 8f9d 1cbe 0138 0ebe 6fd8 ffbd 3e0d 81be
00000090: 97f0 a5bd 566b db3d 4842 d93d 5511 33be
000000a0: 2986 0abe cb1c b9bd 21fb a0bd 243d b8bc
000000b0: 3005 bebd 20d1 87bc 2097 a83d 231f 2fbe
000000c0: 9001 143d 068d 3dbe 37f9 4cbb eaeb 323c
000000d0: 5c97 d1be 7b98 8fbd 4ffa dbbc c69f c53c
000000e0: 834e 6abe 40a0 a1bd 61fd 96be 6a7a 5fbe
000000f0: 4a7e 2bbe c8b5 06bc d33d 19be 6873 4abd
00000100: 6561 503d bffe d5bd f8e5 b73d 8093 453d
00000110: ac18 28bd c4cd 1ebe 1000 3b3d 8fff 69bc
00000120: cd70 06be e7ee 15be 4289 c3bc ffed db3d
00000130: f3e9 08bd 4dac 923d 48ef 07bd 491c cabc
00000140: 903a ebbd 72ac 813d 6539 943d e356 ea3d
00000150: ec71 9cbd a66a acbd 9898 bc3d 8819 9abd
00000160: f7d5 be3d 4695 61bd 99ee 98bd 7a3c db3d
00000170: c19a 9c3d 0424 e1bd 9739 b23c 69b5 b53d
00000180: 5ff9 08bf 23ce 893e a983 773d 9587 663c
00000190: 7fd1 1f3e 50a9 bf3d 73a6 303e 34c2 31bd
000001a0: 19bd 80bd ff7f a2be 21ef a23d d90e 933e
000001b0: 96cf 1bbd 1fd4 993e 097f 3e3d 6745 dabd
000001c0: 9251 913d 40e9 70be 5fb0 91bd 1e22 813d
000001d0: 24c5 86be 2950 933c 6d56 203e b557 493e
000001e0: 1456 ae3d 43a0 203e 4ef6 89bd 7d07 953d
000001f0: 4da7 a23d a452 de3d 988b 943e c849 753d
-0.25991163 0.19042844 0.028292755 -0.076322615 0.25419647 0.16171418 0.05323541 -0.1014587
-0.22255562 -0.3333297 -0.1313434 0.061852362 0.23108847 0.26589027 0.024896195 -0.2511516
-0.12296846 -0.07103 0.10760489 -0.119267516 -0.028104711 0.1210814 0.04522696 0.0028305724
-0.04382501 0.10271416 -0.010486628 0.1542768 -0.01814353 0.11842845 0.08859446 0.06863849
-0.15294479 -0.13888551 -0.12492453 -0.25205415 -0.081025295 0.10713832 0.10608345 -0.1748708
-0.1352774 -0.09038695 -0.07860399 -0.022490092 -0.09278333 -0.01657921 0.0823195 -0.17101721
0.036134303 -0.18510827 -0.0031276473 0.010920504 -0.4093579 -0.07011505 -0.026852755 0.024124037
-0.22881512 -0.078918934 -0.29490188 -0.21824041 -0.16747394 -0.008222051 -0.1496499 -0.049426466
0.050874133 -0.104489796 0.0897941 0.04823637 -0.041039154 -0.15508181 0.045654356 -0.014282121
-0.13128968 -0.14641915 -0.02386916 0.107387535 -0.033426236 0.0716177 -0.03318718 -0.02467169
-0.11485779 0.063317195 0.0723751 0.114423536 -0.076389164 -0.08418779 0.092087924 -0.07524401
0.09318154 -0.055074 -0.07467384 0.10704894 0.076467045 -0.109931976 0.021755977 0.08872492
-0.5350551 0.26915082 0.060428295 0.014070411 0.1560726 0.09358466 0.17250995 -0.043398097
-0.062860675 -0.31738278 0.079557665 0.28722265 -0.038039766 0.30044648 0.04650787 -0.10657769
0.070956364 -0.23526478 -0.07113718 0.063053355 -0.2632228 0.01798256 0.15657969 0.19662364
0.08512512 0.15686135 -0.06736432 0.07276819 0.07942066 0.10855606 0.29012752 0.059884816

lstm.bias_hh_l1 f4 [128]
00000000: 912e 02bf 363f 343e 5a2d a73d d933 c6bd
00000010: 4924 493e b9b4 00be 8dbc 0dbe 7bdd 10bd
00000020: c070 023d 5c4c bbbd ae25 eebc 4e9d 8f3e
00000030: 7cef fe3d 9c22 053e 42b9 913e 7b23 e2bd
00000040: 3504 73be 7620 ecbd 5447 883d 51d6 cebd
00000050: 4cfc 00be 2d9e 5f3c 807e 273d 1dc8 7d3e
00000060: d7bb c7bb 5c5e d0bd 6dff edbd d1ea e43d
00000070: c5f5 9dbc ddae 8d3d 0262 633e 7c86 8bbd
00000080: 4254 83be 1b96 6ebe 4524 363d b7e0 6ebe
00000090: 02bf 34be 0a22 553d deaf 2abd 79b2 8abe
000000a0: 9515 46be ac68 b3be 6e1e 50be 361f 96bd
000000b0: 6b77 f13d bfde 9dbd 1041 79bd 0481 3cbd
000000c0: 433c f1bd a8f2 42be 9c8f 3c3d 1555 fabc
000000d0: 2e14 02be 5a38 a4be 5ed7 9bbe d08a dcbc
000000e0: 6498 673d 3c7d 2abe bfb0 9ebe eb6f 123c
000000f0: 6e73 94be 60fd 67be e618 c1bc e111 95be
00000100: e50e 3b3d 417d 613d 5c7b b3bd 9405 bd3d
00000110: b46c 043d 06f0 27bd 58c5 a03c 7dd6 f0bc
00000120: e355 cebd f6e1 d0bd 7808 563d 62d8 f9bd
00000130: 2264 a4bc 0a60 a1bd 74a4 b33d 4a6c a3bd
00000140: 39f8 c9bc 8d14 89bd a852 013c d70d ef3d
00000150: ec3d 82bd 75aa 523d 5301 bbbc 731b 993c
00000160: 0955 863c e579 283e c1cc a33d bc35 81bd
00000170: e573 0d3d b26e 9a3c 3ea0 62bd c25b cd3d
00000180: 43bc debe d32f af3d b076 913e 2530 773c
00000190: af7d 9a3e 157a 763d 149e 2e3d 3ecc d43d
000001a0: 624a 5bbe 669e 65be 4532 c4bd 2698 bc3e
000001b0: 1c99 a03d 819c 3c3e d28e 9a3e 4c61 86be
000001c0: 91a6 1bbd 8c64 81bd 98e0 79bd 47b0 1bbe
000001d0: 3d5f f0bd a36f 0a3e 4208 78bc bea2 f33d
000001e0: c6e7 e0bd 6ebd f0bb 94b9 47be 425f babb
000001f0: 4adf 55bd 2ce1 dc3d 5ac0 a33e 46d7 dd3d
-0.50852305 0.17602238 0.08162947 -0.09677858 0.19642748 -0.1256894 -0.13841458 -0.03536747
0.031845808 -0.09145424 -0.029070701 0.280497 0.12448022 0.13001484 0.28461653 -0.110419236
-0.23732074 -0.11529629 0.0665423 -0.10099471 -0.12596244 0.013648552 0.040892124 0.24783368
-0.0060953903 -0.101742476 -0.11620984 0.111776 -0.019282231 0.06918118 0.22205356 -0.0681276
-0.2565022 -0.23299448 0.044468183 -0.2332791 -0.17650989 0.052034415 -0.041671626 -0.2708929
-0.1934417 -0.35040796 -0.20324108 -0.07330172 0.11790355 -0.07708501 -0.060853064 -0.046021476
-0.11779072 -0.19037879 0.046035394 -0.030558148 -0.1270301 -0.32074243 -0.3043775 -0.02692166
0.056541815 -0.16649336 -0.30994222 0.008937816 -0.28994316 -0.22655249 -0.023571443 -0.29115203
0.0456685 0.055051092 -0.08763763 0.092295796 0.03233023 -0.04100039 0.01962535 -0.029399151
-0.10074975 -0.10199349 0.05225417 -0.12199475 -0.020067278 -0.07879646 0.08771601 -0.07979639
-0.024654495 -0.06693373 0.007893242 0.116725616 -0.06359467 0.05143209 -0.02282778 0.018689847
0.01639797 0.16452749 0.07998038 -0.06309077 0.034534354 0.018851612 -0.0553286 0.10027267
-0.43503007 0.085540436 0.28410864 0.015087162 0.30174014 0.06017502 0.042631224 0.103905186
-0.21415094 -0.22423705 -0.09579901 0.3683483 0.07841703 0.18419077 0.30187088 -0.26246107
-0.038000647 -0.06318006 -0.061005205 -0.15203963 -0.11736915 0.13519149 -0.015138688 0.11896275
-0.10981707 -0.0073468005 -0.19504386 -0.005687625 -0.0522149 0.107851356 0.3198269 0.10832076

fc.weight f4 [1, 32]
00000000: d7dc 383d 05c1 9f3e ba05 793e fab4 50be
00000010: 89d4 5b3e b84d 75be ec5e 473e 392c 273e
00000020: a6ac 103e 90c7 753d 8ef5 e43d fbd3 973e
00000030: 84a5 9f3e 1405 9f3e 8ee2 8ebe 81b3 e73d
00000040: c7ac abbd 836c 6cbd 2d73 2b3e 0321 63be
00000050: 80d5 503e 3db9 433e 5e2f 62be fc4d a3be
00000060: 62da 813e 3b7b 59be 23cb 033e 3e2e 553e
00000070: 620d f5bd e376 14be fc5c 743e 8cf2 d9bd
0.045132484 0.3120195 0.24318591 -0.20381537 0.21467794 -0.23955429 0.19469804 0.16325463
0.1412836 0.06000477 0.11179648 0.29653916 0.31180966 0.31058562 -0.27907223 0.113135345
-0.08382564 -0.057720672 0.16743155 -0.22180562 0.20393944 0.19113632 -0.22088382 -0.31895435
0.25361925 -0.21238415 0.1287046 0.20818421 -0.11965443 -0.14498477 0.23863596 -0.10641965
